…
I0224 17:11:53.632783  7032 net.cpp:296] The NetState phase (1) differed from the phase (0) specified by a rule in layer loss
I0224 17:11:53.632786  7032 net.cpp:332] The NetState did not contain stage 'val' specified by a rule in layer loss
I0224 17:11:53.632791  7032 net.cpp:53] Initializing net from parameters: 
state {
  phase: TEST
  level: 0
  stage: "deploy"
}
layer {
  name: "deploy_data"
  type: "Input"
  top: "data"
  include {
    phase: TEST
    stage: "deploy"
  }
  input_param {
    shape {
      dim: 1
      dim: 1
      dim: 10
      dim: 10
    }
  }
}
layer {
  name: "ip"
  type: "InnerProduct"
  bottom: "data"
  top: "ip"
  inner_product_param {
    num_output: 2
  }
}
layer {
  name: "pred"
  type: "Softmax"
  bottom: "ip"
  top: "pred"
  include {
    phase: TEST
    stage: "deploy"
  }
}
I0224 17:11:53.632834  7032 layer_factory.hpp:77] Creating layer deploy_data
I0224 17:11:53.632846  7032 net.cpp:86] Creating Layer deploy_data
I0224 17:11:53.632853  7032 net.cpp:382] deploy_data -> data
I0224 17:11:53.632866  7032 net.cpp:124] Setting up deploy_data
I0224 17:11:53.632870  7032 net.cpp:131] Top shape: 1 1 10 10 (100)
I0224 17:11:53.632876  7032 net.cpp:139] Memory required for data: 400
I0224 17:11:53.632880  7032 layer_factory.hpp:77] Creating layer ip
I0224 17:11:53.632886  7032 net.cpp:86] Creating Layer ip
I0224 17:11:53.632889  7032 net.cpp:408] ip <- data
I0224 17:11:53.632895  7032 net.cpp:382] ip -> ip
I0224 17:11:53.632915  7032 net.cpp:124] Setting up ip
I0224 17:11:53.632917  7032 net.cpp:131] Top shape: 1 2 (2)
I0224 17:11:53.632922  7032 net.cpp:139] Memory required for data: 408
I0224 17:11:53.632930  7032 layer_factory.hpp:77] Creating layer pred
I0224 17:11:53.632936  7032 net.cpp:86] Creating Layer pred
I0224 17:11:53.632941  7032 net.cpp:408] pred <- ip
I0224 17:11:53.632946  7032 net.cpp:382] pred -> pred
I0224 17:11:53.632959  7032 net.cpp:124] Setting up pred
I0224 17:11:53.632963  7032 net.cpp:131] Top shape: 1 2 (2)
I0224 17:11:53.632968  7032 net.cpp:139] Memory required for data: 416
I0224 17:11:53.632972  7032 net.cpp:202] pred does not need backward computation.
I0224 17:11:53.632977  7032 net.cpp:202] ip does not need backward computation.
I0224 17:11:53.632980  7032 net.cpp:202] deploy_data does not need backward computation.
I0224 17:11:53.632983  7032 net.cpp:244] This network produces output pred
I0224 17:11:53.632989  7032 net.cpp:257] Network initialization done.
.I0224 17:11:53.633860  7032 net.cpp:296] The NetState phase (0) differed from the phase (1) specified by a rule in layer val_data
I0224 17:11:53.633877  7032 net.cpp:296] The NetState phase (0) differed from the phase (1) specified by a rule in layer deploy_data
I0224 17:11:53.633883  7032 net.cpp:296] The NetState phase (0) differed from the phase (1) specified by a rule in layer pred
I0224 17:11:53.633888  7032 net.cpp:53] Initializing net from parameters: 
state {
  phase: TRAIN
  level: 0
  stage: "train"
}
layer {
  name: "train_data"
  type: "DummyData"
  top: "data"
  top: "label"
  include {
    phase: TRAIN
    stage: "train"
  }
  dummy_data_param {
    shape {
      dim: 1
      dim: 1
      dim: 10
      dim: 10
    }
    shape {
      dim: 1
      dim: 1
      dim: 1
      dim: 1
    }
  }
}
layer {
  name: "ip"
  type: "InnerProduct"
  bottom: "data"
  top: "ip"
  inner_product_param {
    num_output: 2
  }
}
layer {
  name: "loss"
  type: "SoftmaxWithLoss"
  bottom: "ip"
  bottom: "label"
  top: "loss"
  include {
    phase: TRAIN
    stage: "train"
  }
  include {
    phase: TEST
    stage: "val"
  }
}
I0224 17:11:53.633939  7032 layer_factory.hpp:77] Creating layer train_data
I0224 17:11:53.633955  7032 net.cpp:86] Creating Layer train_data
I0224 17:11:53.633961  7032 net.cpp:382] train_data -> data
I0224 17:11:53.633970  7032 net.cpp:382] train_data -> label
I0224 17:11:53.633991  7032 net.cpp:124] Setting up train_data
I0224 17:11:53.633996  7032 net.cpp:131] Top shape: 1 1 10 10 (100)
I0224 17:11:53.634001  7032 net.cpp:131] Top shape: 1 1 1 1 (1)
I0224 17:11:53.634006  7032 net.cpp:139] Memory required for data: 404
I0224 17:11:53.634011  7032 layer_factory.hpp:77] Creating layer ip
I0224 17:11:53.634016  7032 net.cpp:86] Creating Layer ip
I0224 17:11:53.634021  7032 net.cpp:408] ip <- data
I0224 17:11:53.634027  7032 net.cpp:382] ip -> ip
I0224 17:11:53.634039  7032 net.cpp:124] Setting up ip
I0224 17:11:53.634043  7032 net.cpp:131] Top shape: 1 2 (2)
I0224 17:11:53.634047  7032 net.cpp:139] Memory required for data: 412
I0224 17:11:53.634055  7032 layer_factory.hpp:77] Creating layer loss
I0224 17:11:53.634063  7032 net.cpp:86] Creating Layer loss
I0224 17:11:53.634068  7032 net.cpp:408] loss <- ip
I0224 17:11:53.634073  7032 net.cpp:408] loss <- label
I0224 17:11:53.634078  7032 net.cpp:382] loss -> loss
I0224 17:11:53.634086  7032 layer_factory.hpp:77] Creating layer loss
…
I0224 17:11:53.634727  7032 net.cpp:296] The NetState phase (1) differed from the phase (0) specified by a rule in layer loss
I0224 17:11:53.634732  7032 net.cpp:332] The NetState did not contain stage 'deploy' specified by a rule in layer pred
I0224 17:11:53.634735  7032 net.cpp:53] Initializing net from parameters: 
state {
  phase: TEST
  level: 0
  stage: "val"
}
layer {
  name: "val_data"
  type: "DummyData"
  top: "data"
  top: "label"
  include {
    phase: TEST
    stage: "val"
  }
  dummy_data_param {
    shape {
      dim: 1
      dim: 1
      dim: 10
      dim: 10
    }
    shape {
      dim: 1
      dim: 1
      dim: 1
      dim: 1
    }
  }
}
layer {
  name: "ip"
  type: "InnerProduct"
  bottom: "data"
  top: "ip"
  inner_product_param {
    num_output: 2
  }
}
layer {
  name: "loss"
  type: "SoftmaxWithLoss"
  bottom: "ip"
  bottom: "label"
  top: "loss"
  include {
    phase: TRAIN
    stage: "train"
  }
  include {
    phase: TEST
    stage: "val"
  }
}
I0224 17:11:53.634789  7032 layer_factory.hpp:77] Creating layer val_data
I0224 17:11:53.634799  7032 net.cpp:86] Creating Layer val_data
I0224 17:11:53.634804  7032 net.cpp:382] val_data -> data
I0224 17:11:53.634812  7032 net.cpp:382] val_data -> label
I0224 17:11:53.634824  7032 net.cpp:124] Setting up val_data
I0224 17:11:53.634827  7032 net.cpp:131] Top shape: 1 1 10 10 (100)
I0224 17:11:53.634833  7032 net.cpp:131] Top shape: 1 1 1 1 (1)
I0224 17:11:53.634838  7032 net.cpp:139] Memory required for data: 404
I0224 17:11:53.634842  7032 layer_factory.hpp:77] Creating layer ip
I0224 17:11:53.634848  7032 net.cpp:86] Creating Layer ip
I0224 17:11:53.634852  7032 net.cpp:408] ip <- data
I0224 17:11:53.634857  7032 net.cpp:382] ip -> ip
I0224 17:11:53.634871  7032 net.cpp:124] Setting up ip
I0224 17:11:53.634874  7032 net.cpp:131] Top shape: 1 2 (2)
I0224 17:11:53.634879  7032 net.cpp:139] Memory required for data: 412
I0224 17:11:53.634887  7032 layer_factory.hpp:77] Creating layer loss
I0224 17:11:53.634894  7032 net.cpp:86] Creating Layer loss
I0224 17:11:53.634897  7032 net.cpp:408] loss <- ip
I0224 17:11:53.634902  7032 net.cpp:408] loss <- label
I0224 17:11:53.634908  7032 net.cpp:382] loss -> loss
I0224 17:11:53.634917  7032 layer_factory.hpp:77] Creating layer loss
…
I0224 17:11:53.634968  7032 net.cpp:257] Network initialization done.
.I0224 17:11:53.635493  7032 net.cpp:306] The NetState level (0) is above the min_level (1) specified by a rule in layer Level1Only
I0224 17:11:53.635507  7032 net.cpp:306] The NetState level (0) is above the min_level (1) specified by a rule in layer Level>=1
I0224 17:11:53.635511  7032 net.cpp:53] Initializing net from parameters: 
state {
  phase: TEST
  level: 0
}
layer {
  name: "data"
  type: "DummyData"
  top: "data"
  dummy_data_param {
    shape {
      dim: 1
      dim: 1
      dim: 10
      dim: 10
    }
  }
}
layer {
  name: "NoLevel"
  type: "InnerProduct"
  bottom: "data"
  top: "NoLevel"
  inner_product_param {
    num_output: 1
  }
}
layer {
  name: "Level0Only"
  type: "InnerProduct"
  bottom: "data"
  top: "Level0Only"
  include {
    min_level: 0
    max_level: 0
  }
  inner_product_param {
    num_output: 1
  }
}
layer {
  name: "Level>=0"
  type: "InnerProduct"
  bottom: "data"
  top: "Level>=0"
  include {
    min_level: 0
  }
  inner_product_param {
    num_output: 1
  }
}
I0224 17:11:53.635584  7032 layer_factory.hpp:77] Creating layer data
I0224 17:11:53.635591  7032 net.cpp:86] Creating Layer data
I0224 17:11:53.635597  7032 net.cpp:382] data -> data
I0224 17:11:53.635608  7032 net.cpp:124] Setting up data
I0224 17:11:53.635612  7032 net.cpp:131] Top shape: 1 1 10 10 (100)
I0224 17:11:53.635617  7032 net.cpp:139] Memory required for data: 400
I0224 17:11:53.635622  7032 layer_factory.hpp:77] Creating layer data_data_0_split
I0224 17:11:53.635628  7032 net.cpp:86] Creating Layer data_data_0_split
I0224 17:11:53.635632  7032 net.cpp:408] data_data_0_split <- data
I0224 17:11:53.635637  7032 net.cpp:382] data_data_0_split -> data_data_0_split_0
I0224 17:11:53.635644  7032 net.cpp:382] data_data_0_split -> data_data_0_split_1
I0224 17:11:53.635651  7032 net.cpp:382] data_data_0_split -> data_data_0_split_2
I0224 17:11:53.635659  7032 net.cpp:124] Setting up data_data_0_split
I0224 17:11:53.635663  7032 net.cpp:131] Top shape: 1 1 10 10 (100)
I0224 17:11:53.635668  7032 net.cpp:131] Top shape: 1 1 10 10 (100)
I0224 17:11:53.635673  7032 net.cpp:131] Top shape: 1 1 10 10 (100)
I0224 17:11:53.635679  7032 net.cpp:139] Memory required for data: 1600
I0224 17:11:53.635681  7032 layer_factory.hpp:77] Creating layer NoLevel
I0224 17:11:53.635687  7032 net.cpp:86] Creating Layer NoLevel
I0224 17:11:53.635691  7032 net.cpp:408] NoLevel <- data_data_0_split_0
I0224 17:11:53.635696  7032 net.cpp:382] NoLevel -> NoLevel
I0224 17:11:53.635711  7032 net.cpp:124] Setting up NoLevel
I0224 17:11:53.635715  7032 net.cpp:131] Top shape: 1 1 (1)
I0224 17:11:53.635720  7032 net.cpp:139] Memory required for data: 1604
I0224 17:11:53.635728  7032 layer_factory.hpp:77] Creating layer Level0Only
I0224 17:11:53.635735  7032 net.cpp:86] Creating Layer Level0Only
I0224 17:11:53.635738  7032 net.cpp:408] Level0Only <- data_data_0_split_1
I0224 17:11:53.635743  7032 net.cpp:382] Level0Only -> Level0Only
I0224 17:11:53.635757  7032 net.cpp:124] Setting up Level0Only
I0224 17:11:53.635762  7032 net.cpp:131] Top shape: 1 1 (1)
I0224 17:11:53.635766  7032 net.cpp:139] Memory required for data: 1608
I0224 17:11:53.635773  7032 layer_factory.hpp:77] Creating layer Level>=0
I0224 17:11:53.635780  7032 net.cpp:86] Creating Layer Level>=0
I0224 17:11:53.635784  7032 net.cpp:408] Level>=0 <- data_data_0_split_2
I0224 17:11:53.635790  7032 net.cpp:382] Level>=0 -> Level>=0
I0224 17:11:53.635803  7032 net.cpp:124] Setting up Level>=0
I0224 17:11:53.635807  7032 net.cpp:131] Top shape: 1 1 (1)
I0224 17:11:53.635812  7032 net.cpp:139] Memory required for data: 1612
I0224 17:11:53.635821  7032 net.cpp:202] Level>=0 does not need backward computation.
I0224 17:11:53.635825  7032 net.cpp:202] Level0Only does not need backward computation.
I0224 17:11:53.635829  7032 net.cpp:202] NoLevel does not need backward computation.
I0224 17:11:53.635834  7032 net.cpp:202] data_data_0_split does not need backward computation.
I0224 17:11:53.635838  7032 net.cpp:202] data does not need backward computation.
I0224 17:11:53.635843  7032 net.cpp:244] This network produces output Level0Only
I0224 17:11:53.635845  7032 net.cpp:244] This network produces output Level>=0
I0224 17:11:53.635849  7032 net.cpp:244] This network produces output NoLevel
I0224 17:11:53.635859  7032 net.cpp:257] Network initialization done.
.I0224 17:11:53.636322  7032 net.cpp:316] The NetState level (1) is above the max_level (0) specified by a rule in layer Level0Only
I0224 17:11:53.636337  7032 net.cpp:53] Initializing net from parameters: 
state {
  phase: TEST
  level: 1
}
layer {
  name: "data"
  type: "DummyData"
  top: "data"
  dummy_data_param {
    shape {
      dim: 1
      dim: 1
      dim: 10
      dim: 10
    }
  }
}
layer {
  name: "NoLevel"
  type: "InnerProduct"
  bottom: "data"
  top: "NoLevel"
  inner_product_param {
    num_output: 1
  }
}
layer {
  name: "Level1Only"
  type: "InnerProduct"
  bottom: "data"
  top: "Level1Only"
  include {
    min_level: 1
    max_level: 1
  }
  inner_product_param {
    num_output: 1
  }
}
layer {
  name: "Level>=0"
  type: "InnerProduct"
  bottom: "data"
  top: "Level>=0"
  include {
    min_level: 0
  }
  inner_product_param {
    num_output: 1
  }
}
layer {
  name: "Level>=1"
  type: "InnerProduct"
  bottom: "data"
  top: "Level>=1"
  include {
    min_level: 1
  }
  inner_product_param {
    num_output: 1
  }
}
I0224 17:11:53.636410  7032 layer_factory.hpp:77] Creating layer data
I0224 17:11:53.636418  7032 net.cpp:86] Creating Layer data
I0224 17:11:53.636423  7032 net.cpp:382] data -> data
I0224 17:11:53.636435  7032 net.cpp:124] Setting up data
I0224 17:11:53.636438  7032 net.cpp:131] Top shape: 1 1 10 10 (100)
I0224 17:11:53.636445  7032 net.cpp:139] Memory required for data: 400
I0224 17:11:53.636447  7032 layer_factory.hpp:77] Creating layer data_data_0_split
I0224 17:11:53.636454  7032 net.cpp:86] Creating Layer data_data_0_split
I0224 17:11:53.636458  7032 net.cpp:408] data_data_0_split <- data
I0224 17:11:53.636464  7032 net.cpp:382] data_data_0_split -> data_data_0_split_0
I0224 17:11:53.636471  7032 net.cpp:382] data_data_0_split -> data_data_0_split_1
I0224 17:11:53.636478  7032 net.cpp:382] data_data_0_split -> data_data_0_split_2
I0224 17:11:53.636484  7032 net.cpp:382] data_data_0_split -> data_data_0_split_3
I0224 17:11:53.636493  7032 net.cpp:124] Setting up data_data_0_split
I0224 17:11:53.636497  7032 net.cpp:131] Top shape: 1 1 10 10 (100)
I0224 17:11:53.636502  7032 net.cpp:131] Top shape: 1 1 10 10 (100)
I0224 17:11:53.636507  7032 net.cpp:131] Top shape: 1 1 10 10 (100)
I0224 17:11:53.636512  7032 net.cpp:131] Top shape: 1 1 10 10 (100)
I0224 17:11:53.636516  7032 net.cpp:139] Memory required for data: 2000
I0224 17:11:53.636520  7032 layer_factory.hpp:77] Creating layer NoLevel
I0224 17:11:53.636526  7032 net.cpp:86] Creating Layer NoLevel
I0224 17:11:53.636530  7032 net.cpp:408] NoLevel <- data_data_0_split_0
I0224 17:11:53.636536  7032 net.cpp:382] NoLevel -> NoLevel
I0224 17:11:53.636548  7032 net.cpp:124] Setting up NoLevel
I0224 17:11:53.636552  7032 net.cpp:131] Top shape: 1 1 (1)
I0224 17:11:53.636557  7032 net.cpp:139] Memory required for data: 2004
I0224 17:11:53.636565  7032 layer_factory.hpp:77] Creating layer Level1Only
I0224 17:11:53.636570  7032 net.cpp:86] Creating Layer Level1Only
I0224 17:11:53.636574  7032 net.cpp:408] Level1Only <- data_data_0_split_1
I0224 17:11:53.636580  7032 net.cpp:382] Level1Only -> Level1Only
I0224 17:11:53.636591  7032 net.cpp:124] Setting up Level1Only
I0224 17:11:53.636595  7032 net.cpp:131] Top shape: 1 1 (1)
I0224 17:11:53.636600  7032 net.cpp:139] Memory required for data: 2008
I0224 17:11:53.636606  7032 layer_factory.hpp:77] Creating layer Level>=0
I0224 17:11:53.636612  7032 net.cpp:86] Creating Layer Level>=0
I0224 17:11:53.636616  7032 net.cpp:408] Level>=0 <- data_data_0_split_2
I0224 17:11:53.636621  7032 net.cpp:382] Level>=0 -> Level>=0
I0224 17:11:53.636632  7032 net.cpp:124] Setting up Level>=0
I0224 17:11:53.636636  7032 net.cpp:131] Top shape: 1 1 (1)
I0224 17:11:53.636641  7032 net.cpp:139] Memory required for data: 2012
I0224 17:11:53.636647  7032 layer_factory.hpp:77] Creating layer Level>=1
I0224 17:11:53.636653  7032 net.cpp:86] Creating Layer Level>=1
I0224 17:11:53.636657  7032 net.cpp:408] Level>=1 <- data_data_0_split_3
I0224 17:11:53.636663  7032 net.cpp:382] Level>=1 -> Level>=1
I0224 17:11:53.636678  7032 net.cpp:124] Setting up Level>=1
I0224 17:11:53.636682  7032 net.cpp:131] Top shape: 1 1 (1)
I0224 17:11:53.636687  7032 net.cpp:139] Memory required for data: 2016
I0224 17:11:53.636693  7032 net.cpp:202] Level>=1 does not need backward computation.
I0224 17:11:53.636696  7032 net.cpp:202] Level>=0 does not need backward computation.
I0224 17:11:53.636701  7032 net.cpp:202] Level1Only does not need backward computation.
I0224 17:11:53.636704  7032 net.cpp:202] NoLevel does not need backward computation.
I0224 17:11:53.636709  7032 net.cpp:202] data_data_0_split does not need backward computation.
I0224 17:11:53.636713  7032 net.cpp:202] data does not need backward computation.
I0224 17:11:53.636716  7032 net.cpp:244] This network produces output Level1Only
I0224 17:11:53.636721  7032 net.cpp:244] This network produces output Level>=0
I0224 17:11:53.636725  7032 net.cpp:244] This network produces output Level>=1
I0224 17:11:53.636729  7032 net.cpp:244] This network produces output NoLevel
I0224 17:11:53.636737  7032 net.cpp:257] Network initialization done.
.I0224 17:11:53.637248  7032 net.cpp:53] Initializing net from parameters: 
name: "testnet"
force_backward: true
state {
  phase: TRAIN
  level: 0
}
layer {
  name: "data"
  type: "DummyData"
  top: "data"
  top: "label"
  dummy_data_param {
    data_filler {
      type: "gaussian"
      std: 1
    }
    data_filler {
      type: "constant"
    }
    num: 5
    num: 5
    channels: 2
    channels: 1
    height: 3
    height: 1
    width: 4
    width: 1
  }
}
layer {
  name: "conv"
  type: "Convolution"
  bottom: "data"
  top: "conv"
  param {
    decay_mult: 1
  }
  param {
    decay_mult: 0
  }
  convolution_param {
    num_output: 11
    pad: 3
    kernel_size: 2
    weight_filler {
      type: "gaussian"
      std: 1
    }
    bias_filler {
      type: "constant"
      value: 2
    }
  }
}
layer {
  name: "ip"
  type: "InnerProduct"
  bottom: "conv"
  top: "ip_blob"
  inner_product_param {
    num_output: 13
    weight_filler {
      type: "gaussian"
      std: 2.5
    }
    bias_filler {
      type: "constant"
      value: -3
    }
  }
}
layer {
  name: "loss"
  type: "SoftmaxWithLoss"
  bottom: "ip_blob"
  bottom: "label"
  top: "loss"
}
I0224 17:11:53.637337  7032 layer_factory.hpp:77] Creating layer data
I0224 17:11:53.637346  7032 net.cpp:86] Creating Layer data
I0224 17:11:53.637352  7032 net.cpp:382] data -> data
I0224 17:11:53.637362  7032 net.cpp:382] data -> label
I0224 17:11:53.637373  7032 net.cpp:124] Setting up data
I0224 17:11:53.637377  7032 net.cpp:131] Top shape: 5 2 3 4 (120)
I0224 17:11:53.637383  7032 net.cpp:131] Top shape: 5 1 1 1 (5)
I0224 17:11:53.637388  7032 net.cpp:139] Memory required for data: 500
I0224 17:11:53.637392  7032 layer_factory.hpp:77] Creating layer conv
I0224 17:11:53.637400  7032 net.cpp:86] Creating Layer conv
I0224 17:11:53.637404  7032 net.cpp:408] conv <- data
I0224 17:11:53.637411  7032 net.cpp:382] conv -> conv
I0224 17:11:53.637495  7032 net.cpp:124] Setting up conv
I0224 17:11:53.637501  7032 net.cpp:131] Top shape: 5 11 8 9 (3960)
I0224 17:11:53.637506  7032 net.cpp:139] Memory required for data: 16340
I0224 17:11:53.637513  7032 layer_factory.hpp:77] Creating layer ip
I0224 17:11:53.637521  7032 net.cpp:86] Creating Layer ip
I0224 17:11:53.637524  7032 net.cpp:408] ip <- conv
I0224 17:11:53.637531  7032 net.cpp:382] ip -> ip_blob
I0224 17:11:53.637735  7032 net.cpp:124] Setting up ip
I0224 17:11:53.637745  7032 net.cpp:131] Top shape: 5 13 (65)
I0224 17:11:53.637750  7032 net.cpp:139] Memory required for data: 16600
I0224 17:11:53.637756  7032 layer_factory.hpp:77] Creating layer loss
I0224 17:11:53.637763  7032 net.cpp:86] Creating Layer loss
I0224 17:11:53.637766  7032 net.cpp:408] loss <- ip_blob
I0224 17:11:53.637771  7032 net.cpp:408] loss <- label
I0224 17:11:53.637776  7032 net.cpp:382] loss -> loss
I0224 17:11:53.637784  7032 layer_factory.hpp:77] Creating layer loss
…
I0224 17:11:53.637835  7032 net.cpp:244] This network produces output loss
I0224 17:11:53.637840  7032 net.cpp:257] Network initialization done.
.I0224 17:11:53.639758  7032 net.cpp:53] Initializing net from parameters: 
name: "testnet"
force_backward: true
state {
  phase: TRAIN
  level: 0
}
layer {
  name: "data"
  type: "DummyData"
  top: "data"
  top: "label"
  dummy_data_param {
    data_filler {
      type: "gaussian"
      std: 1
    }
    data_filler {
      type: "constant"
    }
    num: 5
    num: 5
    channels: 2
    channels: 1
    height: 3
    height: 1
    width: 4
    width: 1
  }
}
layer {
  name: "conv"
  type: "Convolution"
  bottom: "data"
  top: "conv"
  param {
    decay_mult: 1
  }
  param {
    decay_mult: 0
  }
  convolution_param {
    num_output: 11
    pad: 3
    kernel_size: 2
    weight_filler {
      type: "gaussian"
      std: 1
    }
    bias_filler {
      type: "constant"
      value: 2
    }
  }
}
layer {
  name: "ip"
  type: "InnerProduct"
  bottom: "conv"
  top: "ip_blob"
  inner_product_param {
    num_output: 13
    weight_filler {
      type: "gaussian"
      std: 2.5
    }
    bias_filler {
      type: "constant"
      value: -3
    }
  }
}
layer {
  name: "loss"
  type: "SoftmaxWithLoss"
  bottom: "ip_blob"
  bottom: "label"
  top: "loss"
}
I0224 17:11:53.639855  7032 layer_factory.hpp:77] Creating layer data
I0224 17:11:53.639866  7032 net.cpp:86] Creating Layer data
I0224 17:11:53.639873  7032 net.cpp:382] data -> data
I0224 17:11:53.639883  7032 net.cpp:382] data -> label
I0224 17:11:53.639896  7032 net.cpp:124] Setting up data
I0224 17:11:53.639901  7032 net.cpp:131] Top shape: 5 2 3 4 (120)
I0224 17:11:53.639909  7032 net.cpp:131] Top shape: 5 1 1 1 (5)
I0224 17:11:53.639914  7032 net.cpp:139] Memory required for data: 500
I0224 17:11:53.639919  7032 layer_factory.hpp:77] Creating layer conv
I0224 17:11:53.639927  7032 net.cpp:86] Creating Layer conv
I0224 17:11:53.639931  7032 net.cpp:408] conv <- data
I0224 17:11:53.639940  7032 net.cpp:382] conv -> conv
I0224 17:11:53.639976  7032 net.cpp:124] Setting up conv
I0224 17:11:53.639981  7032 net.cpp:131] Top shape: 5 11 8 9 (3960)
I0224 17:11:53.639986  7032 net.cpp:139] Memory required for data: 16340
I0224 17:11:53.639993  7032 layer_factory.hpp:77] Creating layer ip
I0224 17:11:53.640000  7032 net.cpp:86] Creating Layer ip
I0224 17:11:53.640004  7032 net.cpp:408] ip <- conv
I0224 17:11:53.640010  7032 net.cpp:382] ip -> ip_blob
I0224 17:11:53.640211  7032 net.cpp:124] Setting up ip
I0224 17:11:53.640220  7032 net.cpp:131] Top shape: 5 13 (65)
I0224 17:11:53.640225  7032 net.cpp:139] Memory required for data: 16600
I0224 17:11:53.640231  7032 layer_factory.hpp:77] Creating layer loss
I0224 17:11:53.640238  7032 net.cpp:86] Creating Layer loss
I0224 17:11:53.640241  7032 net.cpp:408] loss <- ip_blob
I0224 17:11:53.640245  7032 net.cpp:408] loss <- label
I0224 17:11:53.640251  7032 net.cpp:382] loss -> loss
I0224 17:11:53.640259  7032 layer_factory.hpp:77] Creating layer loss
…
I0224 17:11:53.657752  7032 net.cpp:257] Network initialization done.
.I0224 17:11:53.658489  7032 net.cpp:332] The NetState did not contain stage 'B' specified by a rule in layer B
I0224 17:11:53.658505  7032 net.cpp:332] The NetState did not contain stage 'B' specified by a rule in layer AandB
I0224 17:11:53.658509  7032 net.cpp:53] Initializing net from parameters: 
state {
  phase: TEST
  level: 0
  stage: "A"
}
layer {
  name: "data"
  type: "DummyData"
  top: "data"
  dummy_data_param {
    shape {
      dim: 1
      dim: 1
      dim: 10
      dim: 10
    }
  }
}
layer {
  name: "A"
  type: "InnerProduct"
  bottom: "data"
  top: "A"
  include {
    stage: "A"
  }
  inner_product_param {
    num_output: 1
  }
}
layer {
  name: "AorB"
  type: "InnerProduct"
  bottom: "data"
  top: "AorB"
  include {
    stage: "A"
  }
  include {
    stage: "B"
  }
  inner_product_param {
    num_output: 1
  }
}
I0224 17:11:53.658565  7032 layer_factory.hpp:77] Creating layer data
I0224 17:11:53.658572  7032 net.cpp:86] Creating Layer data
I0224 17:11:53.658577  7032 net.cpp:382] data -> data
I0224 17:11:53.658588  7032 net.cpp:124] Setting up data
I0224 17:11:53.658592  7032 net.cpp:131] Top shape: 1 1 10 10 (100)
I0224 17:11:53.658598  7032 net.cpp:139] Memory required for data: 400
I0224 17:11:53.658601  7032 layer_factory.hpp:77] Creating layer data_data_0_split
I0224 17:11:53.658607  7032 net.cpp:86] Creating Layer data_data_0_split
I0224 17:11:53.658612  7032 net.cpp:408] data_data_0_split <- data
I0224 17:11:53.658617  7032 net.cpp:382] data_data_0_split -> data_data_0_split_0
I0224 17:11:53.658624  7032 net.cpp:382] data_data_0_split -> data_data_0_split_1
I0224 17:11:53.658632  7032 net.cpp:124] Setting up data_data_0_split
I0224 17:11:53.658635  7032 net.cpp:131] Top shape: 1 1 10 10 (100)
I0224 17:11:53.658640  7032 net.cpp:131] Top shape: 1 1 10 10 (100)
I0224 17:11:53.658645  7032 net.cpp:139] Memory required for data: 1200
I0224 17:11:53.658648  7032 layer_factory.hpp:77] Creating layer A
I0224 17:11:53.658654  7032 net.cpp:86] Creating Layer A
I0224 17:11:53.658658  7032 net.cpp:408] A <- data_data_0_split_0
I0224 17:11:53.658664  7032 net.cpp:382] A -> A
I0224 17:11:53.658675  7032 net.cpp:124] Setting up A
I0224 17:11:53.658679  7032 net.cpp:131] Top shape: 1 1 (1)
I0224 17:11:53.658684  7032 net.cpp:139] Memory required for data: 1204
I0224 17:11:53.658712  7032 layer_factory.hpp:77] Creating layer AorB
I0224 17:11:53.658720  7032 net.cpp:86] Creating Layer AorB
I0224 17:11:53.658725  7032 net.cpp:408] AorB <- data_data_0_split_1
I0224 17:11:53.658730  7032 net.cpp:382] AorB -> AorB
I0224 17:11:53.658740  7032 net.cpp:124] Setting up AorB
I0224 17:11:53.658744  7032 net.cpp:131] Top shape: 1 1 (1)
I0224 17:11:53.658749  7032 net.cpp:139] Memory required for data: 1208
I0224 17:11:53.658756  7032 net.cpp:202] AorB does not need backward computation.
I0224 17:11:53.658759  7032 net.cpp:202] A does not need backward computation.
I0224 17:11:53.658763  7032 net.cpp:202] data_data_0_split does not need backward computation.
I0224 17:11:53.658767  7032 net.cpp:202] data does not need backward computation.
I0224 17:11:53.658771  7032 net.cpp:244] This network produces output A
I0224 17:11:53.658776  7032 net.cpp:244] This network produces output AorB
I0224 17:11:53.658782  7032 net.cpp:257] Network initialization done.
.I0224 17:11:53.659243  7032 net.cpp:53] Initializing net from parameters: 
state {
  phase: TEST
  level: 0
  stage: "A"
  stage: "B"
}
layer {
  name: "data"
  type: "DummyData"
  top: "data"
  dummy_data_param {
    shape {
      dim: 1
      dim: 1
      dim: 10
      dim: 10
    }
  }
}
layer {
  name: "A"
  type: "InnerProduct"
  bottom: "data"
  top: "A"
  include {
    stage: "A"
  }
  inner_product_param {
    num_output: 1
  }
}
layer {
  name: "B"
  type: "InnerProduct"
  bottom: "data"
  top: "B"
  include {
    stage: "B"
  }
  inner_product_param {
    num_output: 1
  }
}
layer {
  name: "AorB"
  type: "InnerProduct"
  bottom: "data"
  top: "AorB"
  include {
    stage: "A"
  }
  include {
    stage: "B"
  }
  inner_product_param {
    num_output: 1
  }
}
layer {
  name: "AandB"
  type: "InnerProduct"
  bottom: "data"
  top: "AandB"
  include {
    stage: "A"
    stage: "B"
  }
  inner_product_param {
    num_output: 1
  }
}
I0224 17:11:53.659325  7032 layer_factory.hpp:77] Creating layer data
I0224 17:11:53.659333  7032 net.cpp:86] Creating Layer data
I0224 17:11:53.659338  7032 net.cpp:382] data -> data
I0224 17:11:53.659349  7032 net.cpp:124] Setting up data
I0224 17:11:53.659354  7032 net.cpp:131] Top shape: 1 1 10 10 (100)
I0224 17:11:53.659359  7032 net.cpp:139] Memory required for data: 400
I0224 17:11:53.659363  7032 layer_factory.hpp:77] Creating layer data_data_0_split
I0224 17:11:53.659370  7032 net.cpp:86] Creating Layer data_data_0_split
I0224 17:11:53.659373  7032 net.cpp:408] data_data_0_split <- data
I0224 17:11:53.659379  7032 net.cpp:382] data_data_0_split -> data_data_0_split_0
I0224 17:11:53.659386  7032 net.cpp:382] data_data_0_split -> data_data_0_split_1
I0224 17:11:53.659394  7032 net.cpp:382] data_data_0_split -> data_data_0_split_2
I0224 17:11:53.659399  7032 net.cpp:382] data_data_0_split -> data_data_0_split_3
I0224 17:11:53.659409  7032 net.cpp:124] Setting up data_data_0_split
I0224 17:11:53.659412  7032 net.cpp:131] Top shape: 1 1 10 10 (100)
I0224 17:11:53.659417  7032 net.cpp:131] Top shape: 1 1 10 10 (100)
I0224 17:11:53.659422  7032 net.cpp:131] Top shape: 1 1 10 10 (100)
I0224 17:11:53.659426  7032 net.cpp:131] Top shape: 1 1 10 10 (100)
I0224 17:11:53.659431  7032 net.cpp:139] Memory required for data: 2000
I0224 17:11:53.659435  7032 layer_factory.hpp:77] Creating layer A
I0224 17:11:53.659441  7032 net.cpp:86] Creating Layer A
I0224 17:11:53.659446  7032 net.cpp:408] A <- data_data_0_split_0
I0224 17:11:53.659451  7032 net.cpp:382] A -> A
I0224 17:11:53.659464  7032 net.cpp:124] Setting up A
I0224 17:11:53.659468  7032 net.cpp:131] Top shape: 1 1 (1)
I0224 17:11:53.659472  7032 net.cpp:139] Memory required for data: 2004
I0224 17:11:53.659480  7032 layer_factory.hpp:77] Creating layer B
I0224 17:11:53.659487  7032 net.cpp:86] Creating Layer B
I0224 17:11:53.659490  7032 net.cpp:408] B <- data_data_0_split_1
I0224 17:11:53.659497  7032 net.cpp:382] B -> B
I0224 17:11:53.659508  7032 net.cpp:124] Setting up B
I0224 17:11:53.659512  7032 net.cpp:131] Top shape: 1 1 (1)
I0224 17:11:53.659516  7032 net.cpp:139] Memory required for data: 2008
I0224 17:11:53.659523  7032 layer_factory.hpp:77] Creating layer AorB
I0224 17:11:53.659529  7032 net.cpp:86] Creating Layer AorB
I0224 17:11:53.659534  7032 net.cpp:408] AorB <- data_data_0_split_2
I0224 17:11:53.659540  7032 net.cpp:382] AorB -> AorB
I0224 17:11:53.659550  7032 net.cpp:124] Setting up AorB
I0224 17:11:53.659554  7032 net.cpp:131] Top shape: 1 1 (1)
I0224 17:11:53.659559  7032 net.cpp:139] Memory required for data: 2012
I0224 17:11:53.659565  7032 layer_factory.hpp:77] Creating layer AandB
I0224 17:11:53.659571  7032 net.cpp:86] Creating Layer AandB
I0224 17:11:53.659574  7032 net.cpp:408] AandB <- data_data_0_split_3
I0224 17:11:53.659581  7032 net.cpp:382] AandB -> AandB
I0224 17:11:53.659591  7032 net.cpp:124] Setting up AandB
I0224 17:11:53.659595  7032 net.cpp:131] Top shape: 1 1 (1)
I0224 17:11:53.659600  7032 net.cpp:139] Memory required for data: 2016
I0224 17:11:53.659605  7032 net.cpp:202] AandB does not need backward computation.
I0224 17:11:53.659610  7032 net.cpp:202] AorB does not need backward computation.
I0224 17:11:53.659613  7032 net.cpp:202] B does not need backward computation.
I0224 17:11:53.659617  7032 net.cpp:202] A does not need backward computation.
…
.I0224 17:11:53.660107  7032 net.cpp:332] The NetState did not contain stage 'A' specified by a rule in layer A
I0224 17:11:53.660121  7032 net.cpp:332] The NetState did not contain stage 'A' specified by a rule in layer AorB
I0224 17:11:53.660126  7032 net.cpp:332] The NetState did not contain stage 'A' specified by a rule in layer AandB
I0224 17:11:53.660131  7032 net.cpp:53] Initializing net from parameters: 
state {
  phase: TEST
  level: 0
  stage: "B"
}
layer {
  name: "data"
  type: "DummyData"
  top: "data"
  dummy_data_param {
    shape {
      dim: 1
      dim: 1
      dim: 10
      dim: 10
    }
  }
}
layer {
  name: "B"
  type: "InnerProduct"
  bottom: "data"
  top: "B"
  include {
    stage: "B"
  }
  inner_product_param {
    num_output: 1
  }
}
layer {
  name: "AorB"
  type: "InnerProduct"
  bottom: "data"
  top: "AorB"
  include {
    stage: "A"
  }
  include {
    stage: "B"
  }
  inner_product_param {
    num_output: 1
  }
}
I0224 17:11:53.660184  7032 layer_factory.hpp:77] Creating layer data
I0224 17:11:53.660192  7032 net.cpp:86] Creating Layer data
I0224 17:11:53.660197  7032 net.cpp:382] data -> data
I0224 17:11:53.660207  7032 net.cpp:124] Setting up data
I0224 17:11:53.660212  7032 net.cpp:131] Top shape: 1 1 10 10 (100)
I0224 17:11:53.660218  7032 net.cpp:139] Memory required for data: 400
I0224 17:11:53.660221  7032 layer_factory.hpp:77] Creating layer data_data_0_split
I0224 17:11:53.660228  7032 net.cpp:86] Creating Layer data_data_0_split
I0224 17:11:53.660230  7032 net.cpp:408] data_data_0_split <- data
I0224 17:11:53.660236  7032 net.cpp:382] data_data_0_split -> data_data_0_split_0
I0224 17:11:53.660243  7032 net.cpp:382] data_data_0_split -> data_data_0_split_1
I0224 17:11:53.660250  7032 net.cpp:124] Setting up data_data_0_split
I0224 17:11:53.660254  7032 net.cpp:131] Top shape: 1 1 10 10 (100)
I0224 17:11:53.660259  7032 net.cpp:131] Top shape: 1 1 10 10 (100)
I0224 17:11:53.660264  7032 net.cpp:139] Memory required for data: 1200
I0224 17:11:53.660267  7032 layer_factory.hpp:77] Creating layer B
I0224 17:11:53.660274  7032 net.cpp:86] Creating Layer B
I0224 17:11:53.660277  7032 net.cpp:408] B <- data_data_0_split_0
I0224 17:11:53.660284  7032 net.cpp:382] B -> B
I0224 17:11:53.660295  7032 net.cpp:124] Setting up B
I0224 17:11:53.660300  7032 net.cpp:131] Top shape: 1 1 (1)
I0224 17:11:53.660305  7032 net.cpp:139] Memory required for data: 1204
I0224 17:11:53.660312  7032 layer_factory.hpp:77] Creating layer AorB
I0224 17:11:53.660318  7032 net.cpp:86] Creating Layer AorB
I0224 17:11:53.660322  7032 net.cpp:408] AorB <- data_data_0_split_1
I0224 17:11:53.660328  7032 net.cpp:382] AorB -> AorB
I0224 17:11:53.660341  7032 net.cpp:124] Setting up AorB
I0224 17:11:53.660344  7032 net.cpp:131] Top shape: 1 1 (1)
I0224 17:11:53.660349  7032 net.cpp:139] Memory required for data: 1208
I0224 17:11:53.660356  7032 net.cpp:202] AorB does not need backward computation.
I0224 17:11:53.660359  7032 net.cpp:202] B does not need backward computation.
I0224 17:11:53.660364  7032 net.cpp:202] data_data_0_split does not need backward computation.
I0224 17:11:53.660368  7032 net.cpp:202] data does not need backward computation.
I0224 17:11:53.660372  7032 net.cpp:244] This network produces output AorB
I0224 17:11:53.660375  7032 net.cpp:244] This network produces output B
I0224 17:11:53.660382  7032 net.cpp:257] Network initialization done.
.I0224 17:11:53.661582  7032 net.cpp:53] Initializing net from parameters: 
state {
  phase: TEST
  level: 0
}
layer {
  name: "data"
  type: "DummyData"
  top: "data"
  top: "label"
  transform_param {
    scale: 0.00392156886
  }
  dummy_data_param {
    shape {
      dim: 50
      dim: 1
      dim: 28
      dim: 28
    }
    shape {
      dim: 50
      dim: 1
      dim: 1
      dim: 1
    }
  }
}
layer {
  name: "conv1"
  type: "Convolution"
  bottom: "data"
  top: "conv1"
  convolution_param {
    num_output: 20
    kernel_size: 5
    weight_filler {
      type: "xavier"
    }
  }
}
layer {
  name: "pool1"
  type: "Pooling"
  bottom: "conv1"
  top: "pool1"
  pooling_param {
    pool: MAX
    kernel_size: 2
    stride: 2
  }
}
layer {
  name: "conv2"
  type: "Convolution"
  bottom: "pool1"
  top: "conv2"
  convolution_param {
    num_output: 50
    kernel_size: 5
    weight_filler {
      type: "xavier"
    }
  }
}
layer {
  name: "pool2"
  type: "Pooling"
  bottom: "conv2"
  top: "pool2"
  pooling_param {
    pool: MAX
    kernel_size: 2
    stride: 2
  }
}
layer {
  name: "ip1"
  type: "InnerProduct"
  bottom: "pool2"
  top: "ip1"
  inner_product_param {
    num_output: 500
    weight_filler {
      type: "xavier"
    }
  }
}
layer {
  name: "relu1"
  type: "ReLU"
  bottom: "ip1"
  top: "ip1"
}
layer {
  name: "ip2"
  type: "InnerProduct"
  bottom: "ip1"
  top: "ip2"
  inner_product_param {
    num_output: 10
    weight_filler {
      type: "xavier"
    }
  }
}
layer {
  name: "loss"
  type: "SoftmaxWithLoss"
  bottom: "ip2"
  bottom: "label"
  top: "loss"
}
I0224 17:11:53.661692  7032 layer_factory.hpp:77] Creating layer data
I0224 17:11:53.661701  7032 net.cpp:86] Creating Layer data
I0224 17:11:53.661707  7032 net.cpp:382] data -> data
I0224 17:11:53.661716  7032 net.cpp:382] data -> label
I0224 17:11:53.661743  7032 net.cpp:124] Setting up data
I0224 17:11:53.661747  7032 net.cpp:131] Top shape: 50 1 28 28 (39200)
I0224 17:11:53.661756  7032 net.cpp:131] Top shape: 50 1 1 1 (50)
I0224 17:11:53.661761  7032 net.cpp:139] Memory required for data: 157000
I0224 17:11:53.661764  7032 layer_factory.hpp:77] Creating layer conv1
I0224 17:11:53.661772  7032 net.cpp:86] Creating Layer conv1
I0224 17:11:53.661777  7032 net.cpp:408] conv1 <- data
I0224 17:11:53.661782  7032 net.cpp:382] conv1 -> conv1
I0224 17:11:53.661813  7032 net.cpp:124] Setting up conv1
I0224 17:11:53.661818  7032 net.cpp:131] Top shape: 50 20 24 24 (576000)
I0224 17:11:53.661823  7032 net.cpp:139] Memory required for data: 2461000
I0224 17:11:53.661831  7032 layer_factory.hpp:77] Creating layer pool1
I0224 17:11:53.661839  7032 net.cpp:86] Creating Layer pool1
I0224 17:11:53.661844  7032 net.cpp:408] pool1 <- conv1
I0224 17:11:53.661849  7032 net.cpp:382] pool1 -> pool1
I0224 17:11:53.661859  7032 net.cpp:124] Setting up pool1
I0224 17:11:53.661862  7032 net.cpp:131] Top shape: 50 20 12 12 (144000)
I0224 17:11:53.661867  7032 net.cpp:139] Memory required for data: 3037000
I0224 17:11:53.661871  7032 layer_factory.hpp:77] Creating layer conv2
I0224 17:11:53.661877  7032 net.cpp:86] Creating Layer conv2
I0224 17:11:53.661881  7032 net.cpp:408] conv2 <- pool1
I0224 17:11:53.661887  7032 net.cpp:382] conv2 -> conv2
I0224 17:11:53.662247  7032 net.cpp:124] Setting up conv2
I0224 17:11:53.662258  7032 net.cpp:131] Top shape: 50 50 8 8 (160000)
I0224 17:11:53.662263  7032 net.cpp:139] Memory required for data: 3677000
I0224 17:11:53.662271  7032 layer_factory.hpp:77] Creating layer pool2
I0224 17:11:53.662276  7032 net.cpp:86] Creating Layer pool2
I0224 17:11:53.662281  7032 net.cpp:408] pool2 <- conv2
I0224 17:11:53.662286  7032 net.cpp:382] pool2 -> pool2
I0224 17:11:53.662292  7032 net.cpp:124] Setting up pool2
I0224 17:11:53.662297  7032 net.cpp:131] Top shape: 50 50 4 4 (40000)
I0224 17:11:53.662302  7032 net.cpp:139] Memory required for data: 3837000
I0224 17:11:53.662307  7032 layer_factory.hpp:77] Creating layer ip1
I0224 17:11:53.662312  7032 net.cpp:86] Creating Layer ip1
I0224 17:11:53.662315  7032 net.cpp:408] ip1 <- pool2
I0224 17:11:53.662322  7032 net.cpp:382] ip1 -> ip1
I0224 17:11:53.668357  7032 net.cpp:124] Setting up ip1
I0224 17:11:53.668371  7032 net.cpp:131] Top shape: 50 500 (25000)
I0224 17:11:53.668377  7032 net.cpp:139] Memory required for data: 3937000
I0224 17:11:53.668385  7032 layer_factory.hpp:77] Creating layer relu1
I0224 17:11:53.668392  7032 net.cpp:86] Creating Layer relu1
I0224 17:11:53.668396  7032 net.cpp:408] relu1 <- ip1
I0224 17:11:53.668402  7032 net.cpp:369] relu1 -> ip1 (in-place)
I0224 17:11:53.668409  7032 net.cpp:124] Setting up relu1
I0224 17:11:53.668412  7032 net.cpp:131] Top shape: 50 500 (25000)
I0224 17:11:53.668417  7032 net.cpp:139] Memory required for data: 4037000
I0224 17:11:53.668421  7032 layer_factory.hpp:77] Creating layer ip2
I0224 17:11:53.668426  7032 net.cpp:86] Creating Layer ip2
I0224 17:11:53.668431  7032 net.cpp:408] ip2 <- ip1
I0224 17:11:53.668435  7032 net.cpp:382] ip2 -> ip2
I0224 17:11:53.668517  7032 net.cpp:124] Setting up ip2
I0224 17:11:53.668525  7032 net.cpp:131] Top shape: 50 10 (500)
I0224 17:11:53.668529  7032 net.cpp:139] Memory required for data: 4039000
I0224 17:11:53.668535  7032 layer_factory.hpp:77] Creating layer loss
I0224 17:11:53.668541  7032 net.cpp:86] Creating Layer loss
I0224 17:11:53.668546  7032 net.cpp:408] loss <- ip2
I0224 17:11:53.668551  7032 net.cpp:408] loss <- label
I0224 17:11:53.668556  7032 net.cpp:382] loss -> loss
I0224 17:11:53.668565  7032 layer_factory.hpp:77] Creating layer loss
…
I0224 17:11:53.668637  7032 net.cpp:244] This network produces output loss
I0224 17:11:53.668645  7032 net.cpp:257] Network initialization done.
I0224 17:11:53.669634  7032 net.cpp:53] Initializing net from parameters: 
state {
  phase: TEST
  level: 0
}
layer {
  name: "DummyData1"
  type: "DummyData"
  top: "DummyData1"
  top: "DummyData2"
  transform_param {
    scale: 0.00392156886
  }
  dummy_data_param {
    shape {
      dim: 50
      dim: 1
      dim: 28
      dim: 28
    }
    shape {
      dim: 50
      dim: 1
      dim: 1
      dim: 1
    }
  }
}
layer {
  name: "Convolution1"
  type: "Convolution"
  bottom: "DummyData1"
  top: "Convolution1"
  convolution_param {
    num_output: 20
    kernel_size: 5
    weight_filler {
      type: "xavier"
    }
  }
}
layer {
  name: "Pooling1"
  type: "Pooling"
  bottom: "Convolution1"
  top: "Pooling1"
  pooling_param {
    pool: MAX
    kernel_size: 2
    stride: 2
  }
}
layer {
  name: "Convolution2"
  type: "Convolution"
  bottom: "Pooling1"
  top: "Convolution2"
  convolution_param {
    num_output: 50
    kernel_size: 5
    weight_filler {
      type: "xavier"
    }
  }
}
layer {
  name: "Pooling2"
  type: "Pooling"
  bottom: "Convolution2"
  top: "Pooling2"
  pooling_param {
    pool: MAX
    kernel_size: 2
    stride: 2
  }
}
layer {
  name: "InnerProduct1"
  type: "InnerProduct"
  bottom: "Pooling2"
  top: "InnerProduct1"
  inner_product_param {
    num_output: 500
    weight_filler {
      type: "xavier"
    }
  }
}
layer {
  name: "ReLU1"
  type: "ReLU"
  bottom: "InnerProduct1"
  top: "InnerProduct1"
}
layer {
  name: "InnerProduct2"
  type: "InnerProduct"
  bottom: "InnerProduct1"
  top: "InnerProduct2"
  inner_product_param {
    num_output: 10
    weight_filler {
      type: "xavier"
    }
  }
}
layer {
  name: "SoftmaxWithLoss1"
  type: "SoftmaxWithLoss"
  bottom: "InnerProduct2"
  bottom: "DummyData2"
  top: "SoftmaxWithLoss1"
}
I0224 17:11:53.669737  7032 layer_factory.hpp:77] Creating layer DummyData1
I0224 17:11:53.669746  7032 net.cpp:86] Creating Layer DummyData1
I0224 17:11:53.669752  7032 net.cpp:382] DummyData1 -> DummyData1
I0224 17:11:53.669761  7032 net.cpp:382] DummyData1 -> DummyData2
I0224 17:11:53.669796  7032 net.cpp:124] Setting up DummyData1
I0224 17:11:53.669800  7032 net.cpp:131] Top shape: 50 1 28 28 (39200)
I0224 17:11:53.669807  7032 net.cpp:131] Top shape: 50 1 1 1 (50)
I0224 17:11:53.669813  7032 net.cpp:139] Memory required for data: 157000
I0224 17:11:53.669817  7032 layer_factory.hpp:77] Creating layer Convolution1
I0224 17:11:53.669824  7032 net.cpp:86] Creating Layer Convolution1
I0224 17:11:53.669828  7032 net.cpp:408] Convolution1 <- DummyData1
I0224 17:11:53.669834  7032 net.cpp:382] Convolution1 -> Convolution1
I0224 17:11:53.669863  7032 net.cpp:124] Setting up Convolution1
I0224 17:11:53.669867  7032 net.cpp:131] Top shape: 50 20 24 24 (576000)
I0224 17:11:53.669873  7032 net.cpp:139] Memory required for data: 2461000
I0224 17:11:53.669880  7032 layer_factory.hpp:77] Creating layer Pooling1
I0224 17:11:53.669888  7032 net.cpp:86] Creating Layer Pooling1
I0224 17:11:53.669891  7032 net.cpp:408] Pooling1 <- Convolution1
I0224 17:11:53.669896  7032 net.cpp:382] Pooling1 -> Pooling1
I0224 17:11:53.669905  7032 net.cpp:124] Setting up Pooling1
I0224 17:11:53.669909  7032 net.cpp:131] Top shape: 50 20 12 12 (144000)
I0224 17:11:53.669914  7032 net.cpp:139] Memory required for data: 3037000
I0224 17:11:53.669919  7032 layer_factory.hpp:77] Creating layer Convolution2
I0224 17:11:53.669924  7032 net.cpp:86] Creating Layer Convolution2
I0224 17:11:53.669929  7032 net.cpp:408] Convolution2 <- Pooling1
I0224 17:11:53.669934  7032 net.cpp:382] Convolution2 -> Convolution2
I0224 17:11:53.670346  7032 net.cpp:124] Setting up Convolution2
I0224 17:11:53.670356  7032 net.cpp:131] Top shape: 50 50 8 8 (160000)
I0224 17:11:53.670362  7032 net.cpp:139] Memory required for data: 3677000
I0224 17:11:53.670369  7032 layer_factory.hpp:77] Creating layer Pooling2
I0224 17:11:53.670375  7032 net.cpp:86] Creating Layer Pooling2
I0224 17:11:53.670379  7032 net.cpp:408] Pooling2 <- Convolution2
I0224 17:11:53.670384  7032 net.cpp:382] Pooling2 -> Pooling2
I0224 17:11:53.670392  7032 net.cpp:124] Setting up Pooling2
I0224 17:11:53.670395  7032 net.cpp:131] Top shape: 50 50 4 4 (40000)
I0224 17:11:53.670400  7032 net.cpp:139] Memory required for data: 3837000
I0224 17:11:53.670404  7032 layer_factory.hpp:77] Creating layer InnerProduct1
I0224 17:11:53.670410  7032 net.cpp:86] Creating Layer InnerProduct1
I0224 17:11:53.670413  7032 net.cpp:408] InnerProduct1 <- Pooling2
I0224 17:11:53.670419  7032 net.cpp:382] InnerProduct1 -> InnerProduct1
I0224 17:11:53.676934  7032 net.cpp:124] Setting up InnerProduct1
I0224 17:11:53.676947  7032 net.cpp:131] Top shape: 50 500 (25000)
I0224 17:11:53.676952  7032 net.cpp:139] Memory required for data: 3937000
I0224 17:11:53.676960  7032 layer_factory.hpp:77] Creating layer ReLU1
I0224 17:11:53.676967  7032 net.cpp:86] Creating Layer ReLU1
I0224 17:11:53.676971  7032 net.cpp:408] ReLU1 <- InnerProduct1
I0224 17:11:53.676977  7032 net.cpp:369] ReLU1 -> InnerProduct1 (in-place)
I0224 17:11:53.676985  7032 net.cpp:124] Setting up ReLU1
I0224 17:11:53.676988  7032 net.cpp:131] Top shape: 50 500 (25000)
I0224 17:11:53.676993  7032 net.cpp:139] Memory required for data: 4037000
I0224 17:11:53.676996  7032 layer_factory.hpp:77] Creating layer InnerProduct2
I0224 17:11:53.677002  7032 net.cpp:86] Creating Layer InnerProduct2
I0224 17:11:53.677006  7032 net.cpp:408] InnerProduct2 <- InnerProduct1
I0224 17:11:53.677011  7032 net.cpp:382] InnerProduct2 -> InnerProduct2
I0224 17:11:53.677098  7032 net.cpp:124] Setting up InnerProduct2
I0224 17:11:53.677104  7032 net.cpp:131] Top shape: 50 10 (500)
I0224 17:11:53.677109  7032 net.cpp:139] Memory required for data: 4039000
I0224 17:11:53.677115  7032 layer_factory.hpp:77] Creating layer SoftmaxWithLoss1
I0224 17:11:53.677121  7032 net.cpp:86] Creating Layer SoftmaxWithLoss1
I0224 17:11:53.677125  7032 net.cpp:408] SoftmaxWithLoss1 <- InnerProduct2
I0224 17:11:53.677130  7032 net.cpp:408] SoftmaxWithLoss1 <- DummyData2
I0224 17:11:53.677136  7032 net.cpp:382] SoftmaxWithLoss1 -> SoftmaxWithLoss1
…
.I0224 17:11:53.679540  7032 upgrade_proto.cpp:69] Attempting to upgrade input file specified using deprecated input fields: /tmp/tmpk0qzngcl
I0224 17:11:53.679559  7032 upgrade_proto.cpp:72] Successfully upgraded file specified using deprecated input fields.
W0224 17:11:53.679563  7032 upgrade_proto.cpp:74] Note that future Caffe releases will only support input layers and not input fields.
I0224 17:11:53.679579  7032 net.cpp:53] Initializing net from parameters: 
name: "pythonnet"
force_backward: true
state {
  phase: TRAIN
  level: 0
}
layer {
  name: "input"
  type: "Input"
  top: "data"
  input_param {
    shape {
      dim: 10
      dim: 9
      dim: 8
    }
  }
}
layer {
  name: "one"
  type: "Python"
  bottom: "data"
  top: "one"
  python_param {
    module: "test_python_layer"
    layer: "SimpleLayer"
  }
}
layer {
  name: "two"
  type: "Python"
  bottom: "one"
  top: "two"
  python_param {
    module: "test_python_layer"
    layer: "SimpleLayer"
  }
}
layer {
  name: "three"
  type: "Python"
  bottom: "two"
  top: "three"
  python_param {
    module: "test_python_layer"
    layer: "SimpleLayer"
  }
}
I0224 17:11:53.679630  7032 layer_factory.hpp:77] Creating layer input
I0224 17:11:53.679638  7032 net.cpp:86] Creating Layer input
I0224 17:11:53.679643  7032 net.cpp:382] input -> data
I0224 17:11:53.679652  7032 net.cpp:124] Setting up input
I0224 17:11:53.679656  7032 net.cpp:131] Top shape: 10 9 8 (720)
I0224 17:11:53.679662  7032 net.cpp:139] Memory required for data: 2880
I0224 17:11:53.679666  7032 layer_factory.hpp:77] Creating layer one
I0224 17:11:53.679698  7032 net.cpp:86] Creating Layer one
I0224 17:11:53.679703  7032 net.cpp:408] one <- data
I0224 17:11:53.679708  7032 net.cpp:382] one -> one
I0224 17:11:53.679750  7032 net.cpp:124] Setting up one
I0224 17:11:53.679755  7032 net.cpp:131] Top shape: 10 9 8 (720)
I0224 17:11:53.679760  7032 net.cpp:139] Memory required for data: 5760
I0224 17:11:53.679764  7032 layer_factory.hpp:77] Creating layer two
I0224 17:11:53.679780  7032 net.cpp:86] Creating Layer two
I0224 17:11:53.679783  7032 net.cpp:408] two <- one
I0224 17:11:53.679788  7032 net.cpp:382] two -> two
I0224 17:11:53.679807  7032 net.cpp:124] Setting up two
I0224 17:11:53.679811  7032 net.cpp:131] Top shape: 10 9 8 (720)
I0224 17:11:53.679816  7032 net.cpp:139] Memory required for data: 8640
I0224 17:11:53.679821  7032 layer_factory.hpp:77] Creating layer three
I0224 17:11:53.679833  7032 net.cpp:86] Creating Layer three
I0224 17:11:53.679837  7032 net.cpp:408] three <- two
I0224 17:11:53.679843  7032 net.cpp:382] three -> three
I0224 17:11:53.679860  7032 net.cpp:124] Setting up three
I0224 17:11:53.679869  7032 net.cpp:131] Top shape: 10 9 8 (720)
I0224 17:11:53.679874  7032 net.cpp:139] Memory required for data: 11520
I0224 17:11:53.679878  7032 net.cpp:202] three does not need backward computation.
I0224 17:11:53.679883  7032 net.cpp:202] two does not need backward computation.
I0224 17:11:53.679886  7032 net.cpp:202] one does not need backward computation.
I0224 17:11:53.679890  7032 net.cpp:202] input does not need backward computation.
I0224 17:11:53.679893  7032 net.cpp:244] This network produces output three
I0224 17:11:53.679900  7032 net.cpp:257] Network initialization done.
.I0224 17:11:53.683543  7032 upgrade_proto.cpp:69] Attempting to upgrade input file specified using deprecated input fields: /tmp/tmp3d4_cwm8
I0224 17:11:53.683560  7032 upgrade_proto.cpp:72] Successfully upgraded file specified using deprecated input fields.
W0224 17:11:53.683565  7032 upgrade_proto.cpp:74] Note that future Caffe releases will only support input layers and not input fields.
I0224 17:11:53.683579  7032 net.cpp:53] Initializing net from parameters: 
name: "pythonnet"
force_backward: true
state {
  phase: TRAIN
  level: 0
}
layer {
  name: "input"
  type: "Input"
  top: "data"
  input_param {
    shape {
      dim: 10
      dim: 9
      dim: 8
    }
  }
}
layer {
  name: "one"
  type: "Python"
  bottom: "data"
  top: "one"
  python_param {
    module: "test_python_layer"
    layer: "SimpleLayer"
  }
}
layer {
  name: "two"
  type: "Python"
  bottom: "one"
  top: "two"
  python_param {
    module: "test_python_layer"
    layer: "SimpleLayer"
  }
}
layer {
  name: "three"
  type: "Python"
  bottom: "two"
  top: "three"
  python_param {
    module: "test_python_layer"
    layer: "SimpleLayer"
  }
}
I0224 17:11:53.683630  7032 layer_factory.hpp:77] Creating layer input
I0224 17:11:53.683638  7032 net.cpp:86] Creating Layer input
I0224 17:11:53.683643  7032 net.cpp:382] input -> data
I0224 17:11:53.683652  7032 net.cpp:124] Setting up input
I0224 17:11:53.683656  7032 net.cpp:131] Top shape: 10 9 8 (720)
I0224 17:11:53.683662  7032 net.cpp:139] Memory required for data: 2880
I0224 17:11:53.683666  7032 layer_factory.hpp:77] Creating layer one
I0224 17:11:53.683688  7032 net.cpp:86] Creating Layer one
I0224 17:11:53.683693  7032 net.cpp:408] one <- data
I0224 17:11:53.683698  7032 net.cpp:382] one -> one
I0224 17:11:53.683727  7032 net.cpp:124] Setting up one
I0224 17:11:53.683732  7032 net.cpp:131] Top shape: 10 9 8 (720)
I0224 17:11:53.683737  7032 net.cpp:139] Memory required for data: 5760
I0224 17:11:53.683739  7032 layer_factory.hpp:77] Creating layer two
I0224 17:11:53.683755  7032 net.cpp:86] Creating Layer two
I0224 17:11:53.683760  7032 net.cpp:408] two <- one
I0224 17:11:53.683765  7032 net.cpp:382] two -> two
I0224 17:11:53.683784  7032 net.cpp:124] Setting up two
I0224 17:11:53.683789  7032 net.cpp:131] Top shape: 10 9 8 (720)
I0224 17:11:53.683794  7032 net.cpp:139] Memory required for data: 8640
I0224 17:11:53.683797  7032 layer_factory.hpp:77] Creating layer three
I0224 17:11:53.683811  7032 net.cpp:86] Creating Layer three
I0224 17:11:53.683816  7032 net.cpp:408] three <- two
I0224 17:11:53.683821  7032 net.cpp:382] three -> three
I0224 17:11:53.683840  7032 net.cpp:124] Setting up three
I0224 17:11:53.683843  7032 net.cpp:131] Top shape: 10 9 8 (720)
I0224 17:11:53.683848  7032 net.cpp:139] Memory required for data: 11520
I0224 17:11:53.683852  7032 net.cpp:202] three does not need backward computation.
I0224 17:11:53.683856  7032 net.cpp:202] two does not need backward computation.
I0224 17:11:53.683861  7032 net.cpp:202] one does not need backward computation.
I0224 17:11:53.683864  7032 net.cpp:202] input does not need backward computation.
I0224 17:11:53.683867  7032 net.cpp:244] This network produces output three
I0224 17:11:53.683873  7032 net.cpp:257] Network initialization done.
I0224 17:11:53.684137  7032 upgrade_proto.cpp:69] Attempting to upgrade input file specified using deprecated input fields: /tmp/tmpwh4m2df_
I0224 17:11:53.684154  7032 upgrade_proto.cpp:72] Successfully upgraded file specified using deprecated input fields.
W0224 17:11:53.684157  7032 upgrade_proto.cpp:74] Note that future Caffe releases will only support input layers and not input fields.
I0224 17:11:53.684167  7032 net.cpp:53] Initializing net from parameters: 
name: "pythonnet"
force_backward: true
state {
  phase: TEST
  level: 0
}
layer {
  name: "input"
  type: "Input"
  top: "data"
  input_param {
    shape {
      dim: 10
      dim: 9
      dim: 8
    }
  }
}
layer {
  name: "layer"
  type: "Python"
  bottom: "data"
  top: "top"
  python_param {
    module: "test_python_layer"
    layer: "ExceptionLayer"
  }
}
I0224 17:11:53.684201  7032 layer_factory.hpp:77] Creating layer input
I0224 17:11:53.684208  7032 net.cpp:86] Creating Layer input
I0224 17:11:53.684213  7032 net.cpp:382] input -> data
I0224 17:11:53.684222  7032 net.cpp:124] Setting up input
I0224 17:11:53.684226  7032 net.cpp:131] Top shape: 10 9 8 (720)
I0224 17:11:53.684232  7032 net.cpp:139] Memory required for data: 2880
I0224 17:11:53.684237  7032 layer_factory.hpp:77] Creating layer layer
I0224 17:11:53.684257  7032 net.cpp:86] Creating Layer layer
I0224 17:11:53.684260  7032 net.cpp:408] layer <- data
I0224 17:11:53.684267  7032 net.cpp:382] layer -> top
.I0224 17:11:53.684707  7032 upgrade_proto.cpp:69] Attempting to upgrade input file specified using deprecated input fields: /tmp/tmpsghlx9q3
I0224 17:11:53.684725  7032 upgrade_proto.cpp:72] Successfully upgraded file specified using deprecated input fields.
W0224 17:11:53.684728  7032 upgrade_proto.cpp:74] Note that future Caffe releases will only support input layers and not input fields.
I0224 17:11:53.684742  7032 net.cpp:53] Initializing net from parameters: 
name: "pythonnet"
force_backward: true
state {
  phase: TRAIN
  level: 0
}
layer {
  name: "input"
  type: "Input"
  top: "data"
  input_param {
    shape {
      dim: 10
      dim: 9
      dim: 8
    }
  }
}
layer {
  name: "one"
  type: "Python"
  bottom: "data"
  top: "one"
  python_param {
    module: "test_python_layer"
    layer: "SimpleLayer"
  }
}
layer {
  name: "two"
  type: "Python"
  bottom: "one"
  top: "two"
  python_param {
    module: "test_python_layer"
    layer: "SimpleLayer"
  }
}
layer {
  name: "three"
  type: "Python"
  bottom: "two"
  top: "three"
  python_param {
    module: "test_python_layer"
    layer: "SimpleLayer"
  }
}
I0224 17:11:53.684792  7032 layer_factory.hpp:77] Creating layer input
I0224 17:11:53.684800  7032 net.cpp:86] Creating Layer input
I0224 17:11:53.684805  7032 net.cpp:382] input -> data
I0224 17:11:53.684814  7032 net.cpp:124] Setting up input
I0224 17:11:53.684818  7032 net.cpp:131] Top shape: 10 9 8 (720)
I0224 17:11:53.684823  7032 net.cpp:139] Memory required for data: 2880
I0224 17:11:53.684828  7032 layer_factory.hpp:77] Creating layer one
I0224 17:11:53.684849  7032 net.cpp:86] Creating Layer one
I0224 17:11:53.684852  7032 net.cpp:408] one <- data
I0224 17:11:53.684857  7032 net.cpp:382] one -> one
I0224 17:11:53.684883  7032 net.cpp:124] Setting up one
I0224 17:11:53.684888  7032 net.cpp:131] Top shape: 10 9 8 (720)
I0224 17:11:53.684893  7032 net.cpp:139] Memory required for data: 5760
I0224 17:11:53.684897  7032 layer_factory.hpp:77] Creating layer two
I0224 17:11:53.684911  7032 net.cpp:86] Creating Layer two
I0224 17:11:53.684914  7032 net.cpp:408] two <- one
I0224 17:11:53.684919  7032 net.cpp:382] two -> two
I0224 17:11:53.684938  7032 net.cpp:124] Setting up two
I0224 17:11:53.684942  7032 net.cpp:131] Top shape: 10 9 8 (720)
I0224 17:11:53.684947  7032 net.cpp:139] Memory required for data: 8640
I0224 17:11:53.684950  7032 layer_factory.hpp:77] Creating layer three
I0224 17:11:53.684963  7032 net.cpp:86] Creating Layer three
I0224 17:11:53.684968  7032 net.cpp:408] three <- two
I0224 17:11:53.684973  7032 net.cpp:382] three -> three
I0224 17:11:53.684990  7032 net.cpp:124] Setting up three
I0224 17:11:53.684994  7032 net.cpp:131] Top shape: 10 9 8 (720)
I0224 17:11:53.684999  7032 net.cpp:139] Memory required for data: 11520
I0224 17:11:53.685003  7032 net.cpp:202] three does not need backward computation.
I0224 17:11:53.685007  7032 net.cpp:202] two does not need backward computation.
I0224 17:11:53.685011  7032 net.cpp:202] one does not need backward computation.
I0224 17:11:53.685014  7032 net.cpp:202] input does not need backward computation.
I0224 17:11:53.685019  7032 net.cpp:244] This network produces output three
I0224 17:11:53.685024  7032 net.cpp:257] Network initialization done.
.I0224 17:11:53.688630  7032 upgrade_proto.cpp:69] Attempting to upgrade input file specified using deprecated input fields: /tmp/tmp9u70e__t
I0224 17:11:53.688647  7032 upgrade_proto.cpp:72] Successfully upgraded file specified using deprecated input fields.
W0224 17:11:53.688650  7032 upgrade_proto.cpp:74] Note that future Caffe releases will only support input layers and not input fields.
I0224 17:11:53.688665  7032 net.cpp:53] Initializing net from parameters: 
name: "pythonnet"
force_backward: true
state {
  phase: TRAIN
  level: 0
}
layer {
  name: "input"
  type: "Input"
  top: "data"
  input_param {
    shape {
      dim: 10
      dim: 9
      dim: 8
    }
  }
}
layer {
  name: "one"
  type: "Python"
  bottom: "data"
  top: "one"
  python_param {
    module: "test_python_layer"
    layer: "SimpleLayer"
  }
}
layer {
  name: "two"
  type: "Python"
  bottom: "one"
  top: "two"
  python_param {
    module: "test_python_layer"
    layer: "SimpleLayer"
  }
}
layer {
  name: "three"
  type: "Python"
  bottom: "two"
  top: "three"
  python_param {
    module: "test_python_layer"
    layer: "SimpleLayer"
  }
}
I0224 17:11:53.688714  7032 layer_factory.hpp:77] Creating layer input
I0224 17:11:53.688722  7032 net.cpp:86] Creating Layer input
I0224 17:11:53.688727  7032 net.cpp:382] input -> data
I0224 17:11:53.688736  7032 net.cpp:124] Setting up input
I0224 17:11:53.688741  7032 net.cpp:131] Top shape: 10 9 8 (720)
I0224 17:11:53.688746  7032 net.cpp:139] Memory required for data: 2880
I0224 17:11:53.688750  7032 layer_factory.hpp:77] Creating layer one
I0224 17:11:53.688771  7032 net.cpp:86] Creating Layer one
I0224 17:11:53.688776  7032 net.cpp:408] one <- data
I0224 17:11:53.688781  7032 net.cpp:382] one -> one
I0224 17:11:53.688807  7032 net.cpp:124] Setting up one
I0224 17:11:53.688812  7032 net.cpp:131] Top shape: 10 9 8 (720)
I0224 17:11:53.688817  7032 net.cpp:139] Memory required for data: 5760
I0224 17:11:53.688820  7032 layer_factory.hpp:77] Creating layer two
I0224 17:11:53.688834  7032 net.cpp:86] Creating Layer two
I0224 17:11:53.688838  7032 net.cpp:408] two <- one
I0224 17:11:53.688843  7032 net.cpp:382] two -> two
I0224 17:11:53.688860  7032 net.cpp:124] Setting up two
I0224 17:11:53.688865  7032 net.cpp:131] Top shape: 10 9 8 (720)
I0224 17:11:53.688870  7032 net.cpp:139] Memory required for data: 8640
I0224 17:11:53.688874  7032 layer_factory.hpp:77] Creating layer three
I0224 17:11:53.688886  7032 net.cpp:86] Creating Layer three
I0224 17:11:53.688890  7032 net.cpp:408] three <- two
I0224 17:11:53.688895  7032 net.cpp:382] three -> three
I0224 17:11:53.688912  7032 net.cpp:124] Setting up three
I0224 17:11:53.688916  7032 net.cpp:131] Top shape: 10 9 8 (720)
I0224 17:11:53.688921  7032 net.cpp:139] Memory required for data: 11520
I0224 17:11:53.688925  7032 net.cpp:202] three does not need backward computation.
I0224 17:11:53.688930  7032 net.cpp:202] two does not need backward computation.
I0224 17:11:53.688933  7032 net.cpp:202] one does not need backward computation.
I0224 17:11:53.688936  7032 net.cpp:202] input does not need backward computation.
I0224 17:11:53.688941  7032 net.cpp:244] This network produces output three
I0224 17:11:53.688946  7032 net.cpp:257] Network initialization done.
I0224 17:11:53.689195  7032 upgrade_proto.cpp:69] Attempting to upgrade input file specified using deprecated input fields: /tmp/tmpufw5vdfc
I0224 17:11:53.689211  7032 upgrade_proto.cpp:72] Successfully upgraded file specified using deprecated input fields.
W0224 17:11:53.689215  7032 upgrade_proto.cpp:74] Note that future Caffe releases will only support input layers and not input fields.
I0224 17:11:53.689225  7032 net.cpp:53] Initializing net from parameters: 
name: "pythonnet"
force_backward: true
state {
  phase: TRAIN
  level: 0
}
layer {
  name: "input"
  type: "Input"
  top: "data"
  input_param {
    shape {
      dim: 10
      dim: 9
      dim: 8
    }
  }
}
layer {
  name: "layer"
  type: "Python"
  bottom: "data"
  top: "top"
  python_param {
    module: "test_python_layer"
    layer: "ParameterLayer"
  }
}
I0224 17:11:53.689261  7032 layer_factory.hpp:77] Creating layer input
I0224 17:11:53.689270  7032 net.cpp:86] Creating Layer input
I0224 17:11:53.689275  7032 net.cpp:382] input -> data
I0224 17:11:53.689283  7032 net.cpp:124] Setting up input
I0224 17:11:53.689287  7032 net.cpp:131] Top shape: 10 9 8 (720)
I0224 17:11:53.689293  7032 net.cpp:139] Memory required for data: 2880
I0224 17:11:53.689297  7032 layer_factory.hpp:77] Creating layer layer
I0224 17:11:53.689317  7032 net.cpp:86] Creating Layer layer
I0224 17:11:53.689322  7032 net.cpp:408] layer <- data
I0224 17:11:53.689327  7032 net.cpp:382] layer -> top
I0224 17:11:53.689368  7032 net.cpp:124] Setting up layer
I0224 17:11:53.689373  7032 net.cpp:131] Top shape: 10 9 8 (720)
I0224 17:11:53.689378  7032 net.cpp:139] Memory required for data: 5760
I0224 17:11:53.689384  7032 net.cpp:202] layer does not need backward computation.
I0224 17:11:53.689389  7032 net.cpp:202] input does not need backward computation.
I0224 17:11:53.689393  7032 net.cpp:244] This network produces output top
I0224 17:11:53.689399  7032 net.cpp:257] Network initialization done.
I0224 17:11:53.689893  7032 upgrade_proto.cpp:69] Attempting to upgrade input file specified using deprecated input fields: /tmp/tmpufw5vdfc
I0224 17:11:53.689909  7032 upgrade_proto.cpp:72] Successfully upgraded file specified using deprecated input fields.
W0224 17:11:53.689913  7032 upgrade_proto.cpp:74] Note that future Caffe releases will only support input layers and not input fields.
I0224 17:11:53.689924  7032 net.cpp:53] Initializing net from parameters: 
name: "pythonnet"
force_backward: true
state {
  phase: TRAIN
  level: 0
}
layer {
  name: "input"
  type: "Input"
  top: "data"
  input_param {
    shape {
      dim: 10
      dim: 9
      dim: 8
    }
  }
}
layer {
  name: "layer"
  type: "Python"
  bottom: "data"
  top: "top"
  python_param {
    module: "test_python_layer"
    layer: "ParameterLayer"
  }
}
I0224 17:11:53.689957  7032 layer_factory.hpp:77] Creating layer input
I0224 17:11:53.689965  7032 net.cpp:86] Creating Layer input
I0224 17:11:53.689970  7032 net.cpp:382] input -> data
I0224 17:11:53.689978  7032 net.cpp:124] Setting up input
I0224 17:11:53.689982  7032 net.cpp:131] Top shape: 10 9 8 (720)
I0224 17:11:53.689988  7032 net.cpp:139] Memory required for data: 2880
I0224 17:11:53.689992  7032 layer_factory.hpp:77] Creating layer layer
I0224 17:11:53.690013  7032 net.cpp:86] Creating Layer layer
I0224 17:11:53.690017  7032 net.cpp:408] layer <- data
I0224 17:11:53.690022  7032 net.cpp:382] layer -> top
I0224 17:11:53.690058  7032 net.cpp:124] Setting up layer
I0224 17:11:53.690063  7032 net.cpp:131] Top shape: 10 9 8 (720)
I0224 17:11:53.690068  7032 net.cpp:139] Memory required for data: 5760
I0224 17:11:53.690075  7032 net.cpp:202] layer does not need backward computation.
I0224 17:11:53.690079  7032 net.cpp:202] input does not need backward computation.
I0224 17:11:53.690083  7032 net.cpp:244] This network produces output top
I0224 17:11:53.690088  7032 net.cpp:257] Network initialization done.
.I0224 17:11:53.690484  7032 upgrade_proto.cpp:69] Attempting to upgrade input file specified using deprecated input fields: /tmp/tmpt_6tlwqw
I0224 17:11:53.690500  7032 upgrade_proto.cpp:72] Successfully upgraded file specified using deprecated input fields.
W0224 17:11:53.690505  7032 upgrade_proto.cpp:74] Note that future Caffe releases will only support input layers and not input fields.
I0224 17:11:53.690518  7032 net.cpp:53] Initializing net from parameters: 
name: "pythonnet"
force_backward: true
state {
  phase: TRAIN
  level: 0
}
layer {
  name: "input"
  type: "Input"
  top: "data"
  input_param {
    shape {
      dim: 10
      dim: 9
      dim: 8
    }
  }
}
layer {
  name: "one"
  type: "Python"
  bottom: "data"
  top: "one"
  python_param {
    module: "test_python_layer"
    layer: "SimpleLayer"
  }
}
layer {
  name: "two"
  type: "Python"
  bottom: "one"
  top: "two"
  python_param {
    module: "test_python_layer"
    layer: "SimpleLayer"
  }
}
layer {
  name: "three"
  type: "Python"
  bottom: "two"
  top: "three"
  python_param {
    module: "test_python_layer"
    layer: "SimpleLayer"
  }
}
I0224 17:11:53.690567  7032 layer_factory.hpp:77] Creating layer input
I0224 17:11:53.690574  7032 net.cpp:86] Creating Layer input
I0224 17:11:53.690580  7032 net.cpp:382] input -> data
I0224 17:11:53.690588  7032 net.cpp:124] Setting up input
I0224 17:11:53.690593  7032 net.cpp:131] Top shape: 10 9 8 (720)
I0224 17:11:53.690598  7032 net.cpp:139] Memory required for data: 2880
I0224 17:11:53.690603  7032 layer_factory.hpp:77] Creating layer one
I0224 17:11:53.690623  7032 net.cpp:86] Creating Layer one
I0224 17:11:53.690627  7032 net.cpp:408] one <- data
I0224 17:11:53.690634  7032 net.cpp:382] one -> one
I0224 17:11:53.690659  7032 net.cpp:124] Setting up one
I0224 17:11:53.690663  7032 net.cpp:131] Top shape: 10 9 8 (720)
I0224 17:11:53.690670  7032 net.cpp:139] Memory required for data: 5760
I0224 17:11:53.690672  7032 layer_factory.hpp:77] Creating layer two
I0224 17:11:53.690686  7032 net.cpp:86] Creating Layer two
I0224 17:11:53.690706  7032 net.cpp:408] two <- one
I0224 17:11:53.690711  7032 net.cpp:382] two -> two
I0224 17:11:53.690732  7032 net.cpp:124] Setting up two
I0224 17:11:53.690737  7032 net.cpp:131] Top shape: 10 9 8 (720)
I0224 17:11:53.690742  7032 net.cpp:139] Memory required for data: 8640
I0224 17:11:53.690745  7032 layer_factory.hpp:77] Creating layer three
I0224 17:11:53.690758  7032 net.cpp:86] Creating Layer three
I0224 17:11:53.690763  7032 net.cpp:408] three <- two
I0224 17:11:53.690768  7032 net.cpp:382] three -> three
I0224 17:11:53.690785  7032 net.cpp:124] Setting up three
I0224 17:11:53.690790  7032 net.cpp:131] Top shape: 10 9 8 (720)
I0224 17:11:53.690794  7032 net.cpp:139] Memory required for data: 11520
I0224 17:11:53.690798  7032 net.cpp:202] three does not need backward computation.
I0224 17:11:53.690802  7032 net.cpp:202] two does not need backward computation.
I0224 17:11:53.690806  7032 net.cpp:202] one does not need backward computation.
I0224 17:11:53.690810  7032 net.cpp:202] input does not need backward computation.
…
.I0224 17:11:53.691783  7032 upgrade_proto.cpp:69] Attempting to upgrade input file specified using deprecated input fields: /tmp/tmp33mqx9hy
I0224 17:11:53.691800  7032 upgrade_proto.cpp:72] Successfully upgraded file specified using deprecated input fields.
W0224 17:11:53.691804  7032 upgrade_proto.cpp:74] Note that future Caffe releases will only support input layers and not input fields.
I0224 17:11:53.691818  7032 net.cpp:53] Initializing net from parameters: 
name: "pythonnet"
force_backward: true
state {
  phase: TRAIN
  level: 0
}
layer {
  name: "input"
  type: "Input"
  top: "data"
  input_param {
    shape {
      dim: 10
      dim: 9
      dim: 8
    }
  }
}
layer {
  name: "one"
  type: "Python"
  bottom: "data"
  top: "one"
  python_param {
    module: "test_python_layer"
    layer: "SimpleLayer"
  }
}
layer {
  name: "two"
  type: "Python"
  bottom: "one"
  top: "two"
  python_param {
    module: "test_python_layer"
    layer: "SimpleLayer"
  }
}
layer {
  name: "three"
  type: "Python"
  bottom: "two"
  top: "three"
  python_param {
    module: "test_python_layer"
    layer: "SimpleLayer"
  }
}
I0224 17:11:53.691867  7032 layer_factory.hpp:77] Creating layer input
I0224 17:11:53.691874  7032 net.cpp:86] Creating Layer input
I0224 17:11:53.691879  7032 net.cpp:382] input -> data
I0224 17:11:53.691888  7032 net.cpp:124] Setting up input
I0224 17:11:53.691892  7032 net.cpp:131] Top shape: 10 9 8 (720)
I0224 17:11:53.691897  7032 net.cpp:139] Memory required for data: 2880
I0224 17:11:53.691901  7032 layer_factory.hpp:77] Creating layer one
I0224 17:11:53.691922  7032 net.cpp:86] Creating Layer one
I0224 17:11:53.691926  7032 net.cpp:408] one <- data
I0224 17:11:53.691932  7032 net.cpp:382] one -> one
I0224 17:11:53.691957  7032 net.cpp:124] Setting up one
I0224 17:11:53.691962  7032 net.cpp:131] Top shape: 10 9 8 (720)
I0224 17:11:53.691967  7032 net.cpp:139] Memory required for data: 5760
I0224 17:11:53.691972  7032 layer_factory.hpp:77] Creating layer two
I0224 17:11:53.691984  7032 net.cpp:86] Creating Layer two
I0224 17:11:53.691988  7032 net.cpp:408] two <- one
I0224 17:11:53.691993  7032 net.cpp:382] two -> two
I0224 17:11:53.692011  7032 net.cpp:124] Setting up two
I0224 17:11:53.692015  7032 net.cpp:131] Top shape: 10 9 8 (720)
I0224 17:11:53.692020  7032 net.cpp:139] Memory required for data: 8640
I0224 17:11:53.692024  7032 layer_factory.hpp:77] Creating layer three
I0224 17:11:53.692036  7032 net.cpp:86] Creating Layer three
I0224 17:11:53.692040  7032 net.cpp:408] three <- two
I0224 17:11:53.692045  7032 net.cpp:382] three -> three
I0224 17:11:53.692061  7032 net.cpp:124] Setting up three
I0224 17:11:53.692065  7032 net.cpp:131] Top shape: 10 9 8 (720)
I0224 17:11:53.692070  7032 net.cpp:139] Memory required for data: 11520
I0224 17:11:53.692075  7032 net.cpp:202] three does not need backward computation.
I0224 17:11:53.692078  7032 net.cpp:202] two does not need backward computation.
I0224 17:11:53.692082  7032 net.cpp:202] one does not need backward computation.
I0224 17:11:53.692086  7032 net.cpp:202] input does not need backward computation.
I0224 17:11:53.692090  7032 net.cpp:244] This network produces output three
I0224 17:11:53.692095  7032 net.cpp:257] Network initialization done.
.I0224 17:11:53.692656  7032 upgrade_proto.cpp:69] Attempting to upgrade input file specified using deprecated input fields: /tmp/tmpku9gstv8
I0224 17:11:53.692672  7032 upgrade_proto.cpp:72] Successfully upgraded file specified using deprecated input fields.
W0224 17:11:53.692675  7032 upgrade_proto.cpp:74] Note that future Caffe releases will only support input layers and not input fields.
I0224 17:11:53.692687  7032 net.cpp:53] Initializing net from parameters: 
name: "pythonnet"
force_backward: true
state {
  phase: TRAIN
  level: 0
}
layer {
  name: "input"
  type: "Input"
  top: "data"
  input_param {
    shape {
      dim: 10
      dim: 9
      dim: 8
    }
  }
}
layer {
  name: "mul10"
  type: "Python"
  bottom: "data"
  top: "mul10"
  python_param {
    module: "test_python_layer_with_param_str"
    layer: "SimpleParamLayer"
    param_str: "10"
  }
}
layer {
  name: "mul2"
  type: "Python"
  bottom: "mul10"
  top: "mul2"
  python_param {
    module: "test_python_layer_with_param_str"
    layer: "SimpleParamLayer"
    param_str: "2"
  }
}
I0224 17:11:53.692732  7032 layer_factory.hpp:77] Creating layer input
I0224 17:11:53.692739  7032 net.cpp:86] Creating Layer input
I0224 17:11:53.692744  7032 net.cpp:382] input -> data
I0224 17:11:53.692754  7032 net.cpp:124] Setting up input
I0224 17:11:53.692759  7032 net.cpp:131] Top shape: 10 9 8 (720)
I0224 17:11:53.692764  7032 net.cpp:139] Memory required for data: 2880
I0224 17:11:53.692767  7032 layer_factory.hpp:77] Creating layer mul10
I0224 17:11:53.692790  7032 net.cpp:86] Creating Layer mul10
I0224 17:11:53.692795  7032 net.cpp:408] mul10 <- data
I0224 17:11:53.692800  7032 net.cpp:382] mul10 -> mul10
I0224 17:11:53.692833  7032 net.cpp:124] Setting up mul10
I0224 17:11:53.692838  7032 net.cpp:131] Top shape: 10 9 8 (720)
I0224 17:11:53.692843  7032 net.cpp:139] Memory required for data: 5760
I0224 17:11:53.692847  7032 layer_factory.hpp:77] Creating layer mul2
I0224 17:11:53.692862  7032 net.cpp:86] Creating Layer mul2
I0224 17:11:53.692867  7032 net.cpp:408] mul2 <- mul10
I0224 17:11:53.692872  7032 net.cpp:382] mul2 -> mul2
I0224 17:11:53.692890  7032 net.cpp:124] Setting up mul2
I0224 17:11:53.692895  7032 net.cpp:131] Top shape: 10 9 8 (720)
I0224 17:11:53.692900  7032 net.cpp:139] Memory required for data: 8640
I0224 17:11:53.692903  7032 net.cpp:202] mul2 does not need backward computation.
I0224 17:11:53.692909  7032 net.cpp:202] mul10 does not need backward computation.
I0224 17:11:53.692912  7032 net.cpp:202] input does not need backward computation.
I0224 17:11:53.692915  7032 net.cpp:244] This network produces output mul2
I0224 17:11:53.692921  7032 net.cpp:257] Network initialization done.
.I0224 17:11:53.696465  7032 upgrade_proto.cpp:69] Attempting to upgrade input file specified using deprecated input fields: /tmp/tmpig7i7ne1
I0224 17:11:53.696480  7032 upgrade_proto.cpp:72] Successfully upgraded file specified using deprecated input fields.
W0224 17:11:53.696485  7032 upgrade_proto.cpp:74] Note that future Caffe releases will only support input layers and not input fields.
I0224 17:11:53.696496  7032 net.cpp:53] Initializing net from parameters: 
name: "pythonnet"
force_backward: true
state {
  phase: TRAIN
  level: 0
}
layer {
  name: "input"
  type: "Input"
  top: "data"
  input_param {
    shape {
      dim: 10
      dim: 9
      dim: 8
    }
  }
}
layer {
  name: "mul10"
  type: "Python"
  bottom: "data"
  top: "mul10"
  python_param {
    module: "test_python_layer_with_param_str"
    layer: "SimpleParamLayer"
    param_str: "10"
  }
}
layer {
  name: "mul2"
  type: "Python"
  bottom: "mul10"
  top: "mul2"
  python_param {
    module: "test_python_layer_with_param_str"
    layer: "SimpleParamLayer"
    param_str: "2"
  }
}
I0224 17:11:53.696542  7032 layer_factory.hpp:77] Creating layer input
I0224 17:11:53.696548  7032 net.cpp:86] Creating Layer input
I0224 17:11:53.696553  7032 net.cpp:382] input -> data
I0224 17:11:53.696563  7032 net.cpp:124] Setting up input
I0224 17:11:53.696566  7032 net.cpp:131] Top shape: 10 9 8 (720)
I0224 17:11:53.696573  7032 net.cpp:139] Memory required for data: 2880
I0224 17:11:53.696576  7032 layer_factory.hpp:77] Creating layer mul10
I0224 17:11:53.696597  7032 net.cpp:86] Creating Layer mul10
I0224 17:11:53.696602  7032 net.cpp:408] mul10 <- data
I0224 17:11:53.696607  7032 net.cpp:382] mul10 -> mul10
I0224 17:11:53.696636  7032 net.cpp:124] Setting up mul10
I0224 17:11:53.696641  7032 net.cpp:131] Top shape: 10 9 8 (720)
I0224 17:11:53.696645  7032 net.cpp:139] Memory required for data: 5760
I0224 17:11:53.696650  7032 layer_factory.hpp:77] Creating layer mul2
I0224 17:11:53.696663  7032 net.cpp:86] Creating Layer mul2
I0224 17:11:53.696668  7032 net.cpp:408] mul2 <- mul10
I0224 17:11:53.696672  7032 net.cpp:382] mul2 -> mul2
I0224 17:11:53.696692  7032 net.cpp:124] Setting up mul2
I0224 17:11:53.696696  7032 net.cpp:131] Top shape: 10 9 8 (720)
I0224 17:11:53.696702  7032 net.cpp:139] Memory required for data: 8640
I0224 17:11:53.696705  7032 net.cpp:202] mul2 does not need backward computation.
I0224 17:11:53.696709  7032 net.cpp:202] mul10 does not need backward computation.
I0224 17:11:53.696713  7032 net.cpp:202] input does not need backward computation.
I0224 17:11:53.696717  7032 net.cpp:244] This network produces output mul2
I0224 17:11:53.696722  7032 net.cpp:257] Network initialization done.
.I0224 17:11:53.700438  7032 solver.cpp:45] Initializing solver from parameters: 
test_iter: 10
test_interval: 10
base_lr: 0.01
display: 100
max_iter: 100
lr_policy: "inv"
gamma: 0.0001
power: 0.75
momentum: 0.9
weight_decay: 0.0005
snapshot_prefix: "model"
net: "/tmp/tmpgmedmwf4"
snapshot_after_train: false
I0224 17:11:53.700487  7032 solver.cpp:102] Creating training net from net file: /tmp/tmpgmedmwf4
I0224 17:11:53.700593  7032 net.cpp:53] Initializing net from parameters: 
name: "testnet"
force_backward: true
state {
  phase: TRAIN
}
layer {
  name: "data"
  type: "DummyData"
  top: "data"
  top: "label"
  dummy_data_param {
    data_filler {
      type: "gaussian"
      std: 1
    }
    data_filler {
      type: "constant"
    }
    num: 5
    num: 5
    channels: 2
    channels: 1
    height: 3
    height: 1
    width: 4
    width: 1
  }
}
layer {
  name: "conv"
  type: "Convolution"
  bottom: "data"
  top: "conv"
  param {
    decay_mult: 1
  }
  param {
    decay_mult: 0
  }
  convolution_param {
    num_output: 11
    pad: 3
    kernel_size: 2
    weight_filler {
      type: "gaussian"
      std: 1
    }
    bias_filler {
      type: "constant"
      value: 2
    }
  }
}
layer {
  name: "ip"
  type: "InnerProduct"
  bottom: "conv"
  top: "ip_blob"
  inner_product_param {
    num_output: 13
    weight_filler {
      type: "gaussian"
      std: 2.5
    }
    bias_filler {
      type: "constant"
      value: -3
    }
  }
}
layer {
  name: "loss"
  type: "SoftmaxWithLoss"
  bottom: "ip_blob"
  bottom: "label"
  top: "loss"
}
I0224 17:11:53.700666  7032 layer_factory.hpp:77] Creating layer data
I0224 17:11:53.700675  7032 net.cpp:86] Creating Layer data
I0224 17:11:53.700681  7032 net.cpp:382] data -> data
I0224 17:11:53.700690  7032 net.cpp:382] data -> label
I0224 17:11:53.700701  7032 net.cpp:124] Setting up data
I0224 17:11:53.700706  7032 net.cpp:131] Top shape: 5 2 3 4 (120)
I0224 17:11:53.700711  7032 net.cpp:131] Top shape: 5 1 1 1 (5)
I0224 17:11:53.700716  7032 net.cpp:139] Memory required for data: 500
I0224 17:11:53.700721  7032 layer_factory.hpp:77] Creating layer conv
I0224 17:11:53.700729  7032 net.cpp:86] Creating Layer conv
I0224 17:11:53.700733  7032 net.cpp:408] conv <- data
I0224 17:11:53.700740  7032 net.cpp:382] conv -> conv
I0224 17:11:53.700767  7032 net.cpp:124] Setting up conv
I0224 17:11:53.700772  7032 net.cpp:131] Top shape: 5 11 8 9 (3960)
I0224 17:11:53.700776  7032 net.cpp:139] Memory required for data: 16340
I0224 17:11:53.700784  7032 layer_factory.hpp:77] Creating layer ip
I0224 17:11:53.700790  7032 net.cpp:86] Creating Layer ip
I0224 17:11:53.700794  7032 net.cpp:408] ip <- conv
I0224 17:11:53.700800  7032 net.cpp:382] ip -> ip_blob
I0224 17:11:53.701007  7032 net.cpp:124] Setting up ip
I0224 17:11:53.701015  7032 net.cpp:131] Top shape: 5 13 (65)
I0224 17:11:53.701020  7032 net.cpp:139] Memory required for data: 16600
I0224 17:11:53.701027  7032 layer_factory.hpp:77] Creating layer loss
I0224 17:11:53.701032  7032 net.cpp:86] Creating Layer loss
I0224 17:11:53.701036  7032 net.cpp:408] loss <- ip_blob
I0224 17:11:53.701041  7032 net.cpp:408] loss <- label
I0224 17:11:53.701046  7032 net.cpp:382] loss -> loss
I0224 17:11:53.701053  7032 layer_factory.hpp:77] Creating layer loss
…
