…
I0224 17:09:27.585750 28663 net.cpp:296] The NetState phase (1) differed from the phase (0) specified by a rule in layer loss
I0224 17:09:27.585753 28663 net.cpp:332] The NetState did not contain stage 'val' specified by a rule in layer loss
I0224 17:09:27.585757 28663 net.cpp:53] Initializing net from parameters: 
state {
  phase: TEST
  level: 0
  stage: "deploy"
}
layer {
  name: "deploy_data"
  type: "Input"
  top: "data"
  include {
    phase: TEST
    stage: "deploy"
  }
  input_param {
    shape {
      dim: 1
      dim: 1
      dim: 10
      dim: 10
    }
  }
}
layer {
  name: "ip"
  type: "InnerProduct"
  bottom: "data"
  top: "ip"
  inner_product_param {
    num_output: 2
  }
}
layer {
  name: "pred"
  type: "Softmax"
  bottom: "ip"
  top: "pred"
  include {
    phase: TEST
    stage: "deploy"
  }
}
I0224 17:09:27.585819 28663 layer_factory.hpp:77] Creating layer deploy_data
I0224 17:09:27.585827 28663 net.cpp:86] Creating Layer deploy_data
I0224 17:09:27.585834 28663 net.cpp:382] deploy_data -> data
I0224 17:09:27.585852 28663 net.cpp:124] Setting up deploy_data
I0224 17:09:27.585857 28663 net.cpp:131] Top shape: 1 1 10 10 (100)
I0224 17:09:27.585865 28663 net.cpp:139] Memory required for data: 400
I0224 17:09:27.585868 28663 layer_factory.hpp:77] Creating layer ip
I0224 17:09:27.585877 28663 net.cpp:86] Creating Layer ip
I0224 17:09:27.585881 28663 net.cpp:408] ip <- data
I0224 17:09:27.585888 28663 net.cpp:382] ip -> ip
I0224 17:09:27.585911 28663 net.cpp:124] Setting up ip
I0224 17:09:27.585914 28663 net.cpp:131] Top shape: 1 2 (2)
I0224 17:09:27.585918 28663 net.cpp:139] Memory required for data: 408
I0224 17:09:27.585927 28663 layer_factory.hpp:77] Creating layer pred
I0224 17:09:27.585934 28663 net.cpp:86] Creating Layer pred
I0224 17:09:27.585938 28663 net.cpp:408] pred <- ip
I0224 17:09:27.585944 28663 net.cpp:382] pred -> pred
I0224 17:09:27.585956 28663 net.cpp:124] Setting up pred
I0224 17:09:27.585960 28663 net.cpp:131] Top shape: 1 2 (2)
I0224 17:09:27.585964 28663 net.cpp:139] Memory required for data: 416
I0224 17:09:27.585968 28663 net.cpp:202] pred does not need backward computation.
I0224 17:09:27.585973 28663 net.cpp:202] ip does not need backward computation.
I0224 17:09:27.585976 28663 net.cpp:202] deploy_data does not need backward computation.
I0224 17:09:27.585980 28663 net.cpp:244] This network produces output pred
I0224 17:09:27.585986 28663 net.cpp:257] Network initialization done.
.I0224 17:09:27.586632 28663 net.cpp:296] The NetState phase (0) differed from the phase (1) specified by a rule in layer val_data
I0224 17:09:27.586645 28663 net.cpp:296] The NetState phase (0) differed from the phase (1) specified by a rule in layer deploy_data
I0224 17:09:27.586652 28663 net.cpp:296] The NetState phase (0) differed from the phase (1) specified by a rule in layer pred
I0224 17:09:27.586655 28663 net.cpp:53] Initializing net from parameters: 
state {
  phase: TRAIN
  level: 0
  stage: "train"
}
layer {
  name: "train_data"
  type: "DummyData"
  top: "data"
  top: "label"
  include {
    phase: TRAIN
    stage: "train"
  }
  dummy_data_param {
    shape {
      dim: 1
      dim: 1
      dim: 10
      dim: 10
    }
    shape {
      dim: 1
      dim: 1
      dim: 1
      dim: 1
    }
  }
}
layer {
  name: "ip"
  type: "InnerProduct"
  bottom: "data"
  top: "ip"
  inner_product_param {
    num_output: 2
  }
}
layer {
  name: "loss"
  type: "SoftmaxWithLoss"
  bottom: "ip"
  bottom: "label"
  top: "loss"
  include {
    phase: TRAIN
    stage: "train"
  }
  include {
    phase: TEST
    stage: "val"
  }
}
I0224 17:09:27.586702 28663 layer_factory.hpp:77] Creating layer train_data
I0224 17:09:27.586715 28663 net.cpp:86] Creating Layer train_data
I0224 17:09:27.586721 28663 net.cpp:382] train_data -> data
I0224 17:09:27.586730 28663 net.cpp:382] train_data -> label
I0224 17:09:27.586745 28663 net.cpp:124] Setting up train_data
I0224 17:09:27.586750 28663 net.cpp:131] Top shape: 1 1 10 10 (100)
I0224 17:09:27.586755 28663 net.cpp:131] Top shape: 1 1 1 1 (1)
I0224 17:09:27.586760 28663 net.cpp:139] Memory required for data: 404
I0224 17:09:27.586763 28663 layer_factory.hpp:77] Creating layer ip
I0224 17:09:27.586771 28663 net.cpp:86] Creating Layer ip
I0224 17:09:27.586774 28663 net.cpp:408] ip <- data
I0224 17:09:27.586779 28663 net.cpp:382] ip -> ip
I0224 17:09:27.586793 28663 net.cpp:124] Setting up ip
I0224 17:09:27.586797 28663 net.cpp:131] Top shape: 1 2 (2)
I0224 17:09:27.586802 28663 net.cpp:139] Memory required for data: 412
I0224 17:09:27.586810 28663 layer_factory.hpp:77] Creating layer loss
I0224 17:09:27.586819 28663 net.cpp:86] Creating Layer loss
I0224 17:09:27.586823 28663 net.cpp:408] loss <- ip
I0224 17:09:27.586827 28663 net.cpp:408] loss <- label
I0224 17:09:27.586833 28663 net.cpp:382] loss -> loss
I0224 17:09:27.586843 28663 layer_factory.hpp:77] Creating layer loss
…
I0224 17:09:27.587335 28663 net.cpp:296] The NetState phase (1) differed from the phase (0) specified by a rule in layer loss
I0224 17:09:27.587339 28663 net.cpp:332] The NetState did not contain stage 'deploy' specified by a rule in layer pred
I0224 17:09:27.587342 28663 net.cpp:53] Initializing net from parameters: 
state {
  phase: TEST
  level: 0
  stage: "val"
}
layer {
  name: "val_data"
  type: "DummyData"
  top: "data"
  top: "label"
  include {
    phase: TEST
    stage: "val"
  }
  dummy_data_param {
    shape {
      dim: 1
      dim: 1
      dim: 10
      dim: 10
    }
    shape {
      dim: 1
      dim: 1
      dim: 1
      dim: 1
    }
  }
}
layer {
  name: "ip"
  type: "InnerProduct"
  bottom: "data"
  top: "ip"
  inner_product_param {
    num_output: 2
  }
}
layer {
  name: "loss"
  type: "SoftmaxWithLoss"
  bottom: "ip"
  bottom: "label"
  top: "loss"
  include {
    phase: TRAIN
    stage: "train"
  }
  include {
    phase: TEST
    stage: "val"
  }
}
I0224 17:09:27.587391 28663 layer_factory.hpp:77] Creating layer val_data
I0224 17:09:27.587399 28663 net.cpp:86] Creating Layer val_data
I0224 17:09:27.587404 28663 net.cpp:382] val_data -> data
I0224 17:09:27.587412 28663 net.cpp:382] val_data -> label
I0224 17:09:27.587422 28663 net.cpp:124] Setting up val_data
I0224 17:09:27.587427 28663 net.cpp:131] Top shape: 1 1 10 10 (100)
I0224 17:09:27.587433 28663 net.cpp:131] Top shape: 1 1 1 1 (1)
I0224 17:09:27.587437 28663 net.cpp:139] Memory required for data: 404
I0224 17:09:27.587441 28663 layer_factory.hpp:77] Creating layer ip
I0224 17:09:27.587447 28663 net.cpp:86] Creating Layer ip
I0224 17:09:27.587451 28663 net.cpp:408] ip <- data
I0224 17:09:27.587457 28663 net.cpp:382] ip -> ip
I0224 17:09:27.587469 28663 net.cpp:124] Setting up ip
I0224 17:09:27.587473 28663 net.cpp:131] Top shape: 1 2 (2)
I0224 17:09:27.587478 28663 net.cpp:139] Memory required for data: 412
I0224 17:09:27.587486 28663 layer_factory.hpp:77] Creating layer loss
I0224 17:09:27.587493 28663 net.cpp:86] Creating Layer loss
I0224 17:09:27.587497 28663 net.cpp:408] loss <- ip
I0224 17:09:27.587502 28663 net.cpp:408] loss <- label
I0224 17:09:27.587507 28663 net.cpp:382] loss -> loss
I0224 17:09:27.587515 28663 layer_factory.hpp:77] Creating layer loss
…
I0224 17:09:27.587564 28663 net.cpp:257] Network initialization done.
.I0224 17:09:27.587973 28663 net.cpp:306] The NetState level (0) is above the min_level (1) specified by a rule in layer Level1Only
I0224 17:09:27.587986 28663 net.cpp:306] The NetState level (0) is above the min_level (1) specified by a rule in layer Level>=1
I0224 17:09:27.587990 28663 net.cpp:53] Initializing net from parameters: 
state {
  phase: TEST
  level: 0
}
layer {
  name: "data"
  type: "DummyData"
  top: "data"
  dummy_data_param {
    shape {
      dim: 1
      dim: 1
      dim: 10
      dim: 10
    }
  }
}
layer {
  name: "NoLevel"
  type: "InnerProduct"
  bottom: "data"
  top: "NoLevel"
  inner_product_param {
    num_output: 1
  }
}
layer {
  name: "Level0Only"
  type: "InnerProduct"
  bottom: "data"
  top: "Level0Only"
  include {
    min_level: 0
    max_level: 0
  }
  inner_product_param {
    num_output: 1
  }
}
layer {
  name: "Level>=0"
  type: "InnerProduct"
  bottom: "data"
  top: "Level>=0"
  include {
    min_level: 0
  }
  inner_product_param {
    num_output: 1
  }
}
I0224 17:09:27.588054 28663 layer_factory.hpp:77] Creating layer data
I0224 17:09:27.588063 28663 net.cpp:86] Creating Layer data
I0224 17:09:27.588068 28663 net.cpp:382] data -> data
I0224 17:09:27.588078 28663 net.cpp:124] Setting up data
I0224 17:09:27.588083 28663 net.cpp:131] Top shape: 1 1 10 10 (100)
I0224 17:09:27.588088 28663 net.cpp:139] Memory required for data: 400
I0224 17:09:27.588091 28663 layer_factory.hpp:77] Creating layer data_data_0_split
I0224 17:09:27.588102 28663 net.cpp:86] Creating Layer data_data_0_split
I0224 17:09:27.588106 28663 net.cpp:408] data_data_0_split <- data
I0224 17:09:27.588111 28663 net.cpp:382] data_data_0_split -> data_data_0_split_0
I0224 17:09:27.588119 28663 net.cpp:382] data_data_0_split -> data_data_0_split_1
I0224 17:09:27.588125 28663 net.cpp:382] data_data_0_split -> data_data_0_split_2
I0224 17:09:27.588133 28663 net.cpp:124] Setting up data_data_0_split
I0224 17:09:27.588137 28663 net.cpp:131] Top shape: 1 1 10 10 (100)
I0224 17:09:27.588142 28663 net.cpp:131] Top shape: 1 1 10 10 (100)
I0224 17:09:27.588147 28663 net.cpp:131] Top shape: 1 1 10 10 (100)
I0224 17:09:27.588151 28663 net.cpp:139] Memory required for data: 1600
I0224 17:09:27.588155 28663 layer_factory.hpp:77] Creating layer NoLevel
I0224 17:09:27.588160 28663 net.cpp:86] Creating Layer NoLevel
I0224 17:09:27.588165 28663 net.cpp:408] NoLevel <- data_data_0_split_0
I0224 17:09:27.588169 28663 net.cpp:382] NoLevel -> NoLevel
I0224 17:09:27.588186 28663 net.cpp:124] Setting up NoLevel
I0224 17:09:27.588189 28663 net.cpp:131] Top shape: 1 1 (1)
I0224 17:09:27.588193 28663 net.cpp:139] Memory required for data: 1604
I0224 17:09:27.588201 28663 layer_factory.hpp:77] Creating layer Level0Only
I0224 17:09:27.588207 28663 net.cpp:86] Creating Layer Level0Only
I0224 17:09:27.588210 28663 net.cpp:408] Level0Only <- data_data_0_split_1
I0224 17:09:27.588217 28663 net.cpp:382] Level0Only -> Level0Only
I0224 17:09:27.588227 28663 net.cpp:124] Setting up Level0Only
I0224 17:09:27.588230 28663 net.cpp:131] Top shape: 1 1 (1)
I0224 17:09:27.588235 28663 net.cpp:139] Memory required for data: 1608
I0224 17:09:27.588241 28663 layer_factory.hpp:77] Creating layer Level>=0
I0224 17:09:27.588248 28663 net.cpp:86] Creating Layer Level>=0
I0224 17:09:27.588253 28663 net.cpp:408] Level>=0 <- data_data_0_split_2
I0224 17:09:27.588258 28663 net.cpp:382] Level>=0 -> Level>=0
I0224 17:09:27.588270 28663 net.cpp:124] Setting up Level>=0
I0224 17:09:27.588274 28663 net.cpp:131] Top shape: 1 1 (1)
I0224 17:09:27.588279 28663 net.cpp:139] Memory required for data: 1612
I0224 17:09:27.588286 28663 net.cpp:202] Level>=0 does not need backward computation.
I0224 17:09:27.588290 28663 net.cpp:202] Level0Only does not need backward computation.
I0224 17:09:27.588294 28663 net.cpp:202] NoLevel does not need backward computation.
I0224 17:09:27.588299 28663 net.cpp:202] data_data_0_split does not need backward computation.
I0224 17:09:27.588302 28663 net.cpp:202] data does not need backward computation.
I0224 17:09:27.588306 28663 net.cpp:244] This network produces output Level0Only
I0224 17:09:27.588310 28663 net.cpp:244] This network produces output Level>=0
I0224 17:09:27.588315 28663 net.cpp:244] This network produces output NoLevel
I0224 17:09:27.588321 28663 net.cpp:257] Network initialization done.
.I0224 17:09:27.588671 28663 net.cpp:316] The NetState level (1) is above the max_level (0) specified by a rule in layer Level0Only
I0224 17:09:27.588685 28663 net.cpp:53] Initializing net from parameters: 
state {
  phase: TEST
  level: 1
}
layer {
  name: "data"
  type: "DummyData"
  top: "data"
  dummy_data_param {
    shape {
      dim: 1
      dim: 1
      dim: 10
      dim: 10
    }
  }
}
layer {
  name: "NoLevel"
  type: "InnerProduct"
  bottom: "data"
  top: "NoLevel"
  inner_product_param {
    num_output: 1
  }
}
layer {
  name: "Level1Only"
  type: "InnerProduct"
  bottom: "data"
  top: "Level1Only"
  include {
    min_level: 1
    max_level: 1
  }
  inner_product_param {
    num_output: 1
  }
}
layer {
  name: "Level>=0"
  type: "InnerProduct"
  bottom: "data"
  top: "Level>=0"
  include {
    min_level: 0
  }
  inner_product_param {
    num_output: 1
  }
}
layer {
  name: "Level>=1"
  type: "InnerProduct"
  bottom: "data"
  top: "Level>=1"
  include {
    min_level: 1
  }
  inner_product_param {
    num_output: 1
  }
}
I0224 17:09:27.588752 28663 layer_factory.hpp:77] Creating layer data
I0224 17:09:27.588759 28663 net.cpp:86] Creating Layer data
I0224 17:09:27.588764 28663 net.cpp:382] data -> data
I0224 17:09:27.588774 28663 net.cpp:124] Setting up data
I0224 17:09:27.588779 28663 net.cpp:131] Top shape: 1 1 10 10 (100)
I0224 17:09:27.588784 28663 net.cpp:139] Memory required for data: 400
I0224 17:09:27.588788 28663 layer_factory.hpp:77] Creating layer data_data_0_split
I0224 17:09:27.588794 28663 net.cpp:86] Creating Layer data_data_0_split
I0224 17:09:27.588798 28663 net.cpp:408] data_data_0_split <- data
I0224 17:09:27.588805 28663 net.cpp:382] data_data_0_split -> data_data_0_split_0
I0224 17:09:27.588811 28663 net.cpp:382] data_data_0_split -> data_data_0_split_1
I0224 17:09:27.588819 28663 net.cpp:382] data_data_0_split -> data_data_0_split_2
I0224 17:09:27.588825 28663 net.cpp:382] data_data_0_split -> data_data_0_split_3
I0224 17:09:27.588835 28663 net.cpp:124] Setting up data_data_0_split
I0224 17:09:27.588838 28663 net.cpp:131] Top shape: 1 1 10 10 (100)
I0224 17:09:27.588843 28663 net.cpp:131] Top shape: 1 1 10 10 (100)
I0224 17:09:27.588848 28663 net.cpp:131] Top shape: 1 1 10 10 (100)
I0224 17:09:27.588852 28663 net.cpp:131] Top shape: 1 1 10 10 (100)
I0224 17:09:27.588857 28663 net.cpp:139] Memory required for data: 2000
I0224 17:09:27.588861 28663 layer_factory.hpp:77] Creating layer NoLevel
I0224 17:09:27.588867 28663 net.cpp:86] Creating Layer NoLevel
I0224 17:09:27.588871 28663 net.cpp:408] NoLevel <- data_data_0_split_0
I0224 17:09:27.588876 28663 net.cpp:382] NoLevel -> NoLevel
I0224 17:09:27.588889 28663 net.cpp:124] Setting up NoLevel
I0224 17:09:27.588893 28663 net.cpp:131] Top shape: 1 1 (1)
I0224 17:09:27.588898 28663 net.cpp:139] Memory required for data: 2004
I0224 17:09:27.588907 28663 layer_factory.hpp:77] Creating layer Level1Only
I0224 17:09:27.588912 28663 net.cpp:86] Creating Layer Level1Only
I0224 17:09:27.588917 28663 net.cpp:408] Level1Only <- data_data_0_split_1
I0224 17:09:27.588922 28663 net.cpp:382] Level1Only -> Level1Only
I0224 17:09:27.588932 28663 net.cpp:124] Setting up Level1Only
I0224 17:09:27.588937 28663 net.cpp:131] Top shape: 1 1 (1)
I0224 17:09:27.588940 28663 net.cpp:139] Memory required for data: 2008
I0224 17:09:27.588948 28663 layer_factory.hpp:77] Creating layer Level>=0
I0224 17:09:27.588953 28663 net.cpp:86] Creating Layer Level>=0
I0224 17:09:27.588958 28663 net.cpp:408] Level>=0 <- data_data_0_split_2
I0224 17:09:27.588963 28663 net.cpp:382] Level>=0 -> Level>=0
I0224 17:09:27.588974 28663 net.cpp:124] Setting up Level>=0
I0224 17:09:27.588979 28663 net.cpp:131] Top shape: 1 1 (1)
I0224 17:09:27.588982 28663 net.cpp:139] Memory required for data: 2012
I0224 17:09:27.588989 28663 layer_factory.hpp:77] Creating layer Level>=1
I0224 17:09:27.588994 28663 net.cpp:86] Creating Layer Level>=1
I0224 17:09:27.588999 28663 net.cpp:408] Level>=1 <- data_data_0_split_3
I0224 17:09:27.589004 28663 net.cpp:382] Level>=1 -> Level>=1
I0224 17:09:27.589018 28663 net.cpp:124] Setting up Level>=1
I0224 17:09:27.589022 28663 net.cpp:131] Top shape: 1 1 (1)
I0224 17:09:27.589027 28663 net.cpp:139] Memory required for data: 2016
I0224 17:09:27.589032 28663 net.cpp:202] Level>=1 does not need backward computation.
I0224 17:09:27.589036 28663 net.cpp:202] Level>=0 does not need backward computation.
I0224 17:09:27.589040 28663 net.cpp:202] Level1Only does not need backward computation.
I0224 17:09:27.589044 28663 net.cpp:202] NoLevel does not need backward computation.
I0224 17:09:27.589048 28663 net.cpp:202] data_data_0_split does not need backward computation.
I0224 17:09:27.589052 28663 net.cpp:202] data does not need backward computation.
I0224 17:09:27.589056 28663 net.cpp:244] This network produces output Level1Only
I0224 17:09:27.589061 28663 net.cpp:244] This network produces output Level>=0
I0224 17:09:27.589064 28663 net.cpp:244] This network produces output Level>=1
I0224 17:09:27.589068 28663 net.cpp:244] This network produces output NoLevel
I0224 17:09:27.589076 28663 net.cpp:257] Network initialization done.
.I0224 17:09:27.589469 28663 net.cpp:53] Initializing net from parameters: 
name: "testnet"
force_backward: true
state {
  phase: TRAIN
  level: 0
}
layer {
  name: "data"
  type: "DummyData"
  top: "data"
  top: "label"
  dummy_data_param {
    data_filler {
      type: "gaussian"
      std: 1
    }
    data_filler {
      type: "constant"
    }
    num: 5
    num: 5
    channels: 2
    channels: 1
    height: 3
    height: 1
    width: 4
    width: 1
  }
}
layer {
  name: "conv"
  type: "Convolution"
  bottom: "data"
  top: "conv"
  param {
    decay_mult: 1
  }
  param {
    decay_mult: 0
  }
  convolution_param {
    num_output: 11
    pad: 3
    kernel_size: 2
    weight_filler {
      type: "gaussian"
      std: 1
    }
    bias_filler {
      type: "constant"
      value: 2
    }
  }
}
layer {
  name: "ip"
  type: "InnerProduct"
  bottom: "conv"
  top: "ip_blob"
  inner_product_param {
    num_output: 13
    weight_filler {
      type: "gaussian"
      std: 2.5
    }
    bias_filler {
      type: "constant"
      value: -3
    }
  }
}
layer {
  name: "loss"
  type: "SoftmaxWithLoss"
  bottom: "ip_blob"
  bottom: "label"
  top: "loss"
}
I0224 17:09:27.589534 28663 layer_factory.hpp:77] Creating layer data
I0224 17:09:27.589541 28663 net.cpp:86] Creating Layer data
I0224 17:09:27.589547 28663 net.cpp:382] data -> data
I0224 17:09:27.589556 28663 net.cpp:382] data -> label
I0224 17:09:27.589566 28663 net.cpp:124] Setting up data
I0224 17:09:27.589570 28663 net.cpp:131] Top shape: 5 2 3 4 (120)
I0224 17:09:27.589576 28663 net.cpp:131] Top shape: 5 1 1 1 (5)
I0224 17:09:27.589579 28663 net.cpp:139] Memory required for data: 500
I0224 17:09:27.589582 28663 layer_factory.hpp:77] Creating layer conv
I0224 17:09:27.589591 28663 net.cpp:86] Creating Layer conv
I0224 17:09:27.589596 28663 net.cpp:408] conv <- data
I0224 17:09:27.589602 28663 net.cpp:382] conv -> conv
I0224 17:09:27.589707 28663 net.cpp:124] Setting up conv
I0224 17:09:27.589711 28663 net.cpp:131] Top shape: 5 11 8 9 (3960)
I0224 17:09:27.589716 28663 net.cpp:139] Memory required for data: 16340
I0224 17:09:27.589725 28663 layer_factory.hpp:77] Creating layer ip
I0224 17:09:27.589732 28663 net.cpp:86] Creating Layer ip
I0224 17:09:27.589736 28663 net.cpp:408] ip <- conv
I0224 17:09:27.589743 28663 net.cpp:382] ip -> ip_blob
I0224 17:09:27.589924 28663 net.cpp:124] Setting up ip
I0224 17:09:27.589932 28663 net.cpp:131] Top shape: 5 13 (65)
I0224 17:09:27.589937 28663 net.cpp:139] Memory required for data: 16600
I0224 17:09:27.589944 28663 layer_factory.hpp:77] Creating layer loss
I0224 17:09:27.589951 28663 net.cpp:86] Creating Layer loss
I0224 17:09:27.589954 28663 net.cpp:408] loss <- ip_blob
I0224 17:09:27.589959 28663 net.cpp:408] loss <- label
I0224 17:09:27.589964 28663 net.cpp:382] loss -> loss
I0224 17:09:27.589973 28663 layer_factory.hpp:77] Creating layer loss
…
I0224 17:09:27.590029 28663 net.cpp:244] This network produces output loss
I0224 17:09:27.590036 28663 net.cpp:257] Network initialization done.
.I0224 17:09:27.591307 28663 net.cpp:53] Initializing net from parameters: 
name: "testnet"
force_backward: true
state {
  phase: TRAIN
  level: 0
}
layer {
  name: "data"
  type: "DummyData"
  top: "data"
  top: "label"
  dummy_data_param {
    data_filler {
      type: "gaussian"
      std: 1
    }
    data_filler {
      type: "constant"
    }
    num: 5
    num: 5
    channels: 2
    channels: 1
    height: 3
    height: 1
    width: 4
    width: 1
  }
}
layer {
  name: "conv"
  type: "Convolution"
  bottom: "data"
  top: "conv"
  param {
    decay_mult: 1
  }
  param {
    decay_mult: 0
  }
  convolution_param {
    num_output: 11
    pad: 3
    kernel_size: 2
    weight_filler {
      type: "gaussian"
      std: 1
    }
    bias_filler {
      type: "constant"
      value: 2
    }
  }
}
layer {
  name: "ip"
  type: "InnerProduct"
  bottom: "conv"
  top: "ip_blob"
  inner_product_param {
    num_output: 13
    weight_filler {
      type: "gaussian"
      std: 2.5
    }
    bias_filler {
      type: "constant"
      value: -3
    }
  }
}
layer {
  name: "loss"
  type: "SoftmaxWithLoss"
  bottom: "ip_blob"
  bottom: "label"
  top: "loss"
}
I0224 17:09:27.591368 28663 layer_factory.hpp:77] Creating layer data
I0224 17:09:27.591377 28663 net.cpp:86] Creating Layer data
I0224 17:09:27.591382 28663 net.cpp:382] data -> data
I0224 17:09:27.591392 28663 net.cpp:382] data -> label
I0224 17:09:27.591401 28663 net.cpp:124] Setting up data
I0224 17:09:27.591404 28663 net.cpp:131] Top shape: 5 2 3 4 (120)
I0224 17:09:27.591410 28663 net.cpp:131] Top shape: 5 1 1 1 (5)
I0224 17:09:27.591414 28663 net.cpp:139] Memory required for data: 500
I0224 17:09:27.591418 28663 layer_factory.hpp:77] Creating layer conv
I0224 17:09:27.591425 28663 net.cpp:86] Creating Layer conv
I0224 17:09:27.591429 28663 net.cpp:408] conv <- data
I0224 17:09:27.591436 28663 net.cpp:382] conv -> conv
I0224 17:09:27.591460 28663 net.cpp:124] Setting up conv
I0224 17:09:27.591464 28663 net.cpp:131] Top shape: 5 11 8 9 (3960)
I0224 17:09:27.591470 28663 net.cpp:139] Memory required for data: 16340
I0224 17:09:27.591477 28663 layer_factory.hpp:77] Creating layer ip
I0224 17:09:27.591483 28663 net.cpp:86] Creating Layer ip
I0224 17:09:27.591487 28663 net.cpp:408] ip <- conv
I0224 17:09:27.591493 28663 net.cpp:382] ip -> ip_blob
I0224 17:09:27.591686 28663 net.cpp:124] Setting up ip
I0224 17:09:27.591692 28663 net.cpp:131] Top shape: 5 13 (65)
I0224 17:09:27.591697 28663 net.cpp:139] Memory required for data: 16600
I0224 17:09:27.591704 28663 layer_factory.hpp:77] Creating layer loss
I0224 17:09:27.591709 28663 net.cpp:86] Creating Layer loss
I0224 17:09:27.591713 28663 net.cpp:408] loss <- ip_blob
I0224 17:09:27.591717 28663 net.cpp:408] loss <- label
I0224 17:09:27.591722 28663 net.cpp:382] loss -> loss
I0224 17:09:27.591732 28663 layer_factory.hpp:77] Creating layer loss
…
I0224 17:09:27.605346 28663 net.cpp:257] Network initialization done.
.I0224 17:09:27.605860 28663 net.cpp:332] The NetState did not contain stage 'B' specified by a rule in layer B
I0224 17:09:27.605873 28663 net.cpp:332] The NetState did not contain stage 'B' specified by a rule in layer AandB
I0224 17:09:27.605877 28663 net.cpp:53] Initializing net from parameters: 
state {
  phase: TEST
  level: 0
  stage: "A"
}
layer {
  name: "data"
  type: "DummyData"
  top: "data"
  dummy_data_param {
    shape {
      dim: 1
      dim: 1
      dim: 10
      dim: 10
    }
  }
}
layer {
  name: "A"
  type: "InnerProduct"
  bottom: "data"
  top: "A"
  include {
    stage: "A"
  }
  inner_product_param {
    num_output: 1
  }
}
layer {
  name: "AorB"
  type: "InnerProduct"
  bottom: "data"
  top: "AorB"
  include {
    stage: "A"
  }
  include {
    stage: "B"
  }
  inner_product_param {
    num_output: 1
  }
}
I0224 17:09:27.605927 28663 layer_factory.hpp:77] Creating layer data
I0224 17:09:27.605934 28663 net.cpp:86] Creating Layer data
I0224 17:09:27.605939 28663 net.cpp:382] data -> data
I0224 17:09:27.605950 28663 net.cpp:124] Setting up data
I0224 17:09:27.605955 28663 net.cpp:131] Top shape: 1 1 10 10 (100)
I0224 17:09:27.605960 28663 net.cpp:139] Memory required for data: 400
I0224 17:09:27.605964 28663 layer_factory.hpp:77] Creating layer data_data_0_split
I0224 17:09:27.605970 28663 net.cpp:86] Creating Layer data_data_0_split
I0224 17:09:27.605974 28663 net.cpp:408] data_data_0_split <- data
I0224 17:09:27.605980 28663 net.cpp:382] data_data_0_split -> data_data_0_split_0
I0224 17:09:27.605988 28663 net.cpp:382] data_data_0_split -> data_data_0_split_1
I0224 17:09:27.605994 28663 net.cpp:124] Setting up data_data_0_split
I0224 17:09:27.605998 28663 net.cpp:131] Top shape: 1 1 10 10 (100)
I0224 17:09:27.606003 28663 net.cpp:131] Top shape: 1 1 10 10 (100)
I0224 17:09:27.606007 28663 net.cpp:139] Memory required for data: 1200
I0224 17:09:27.606011 28663 layer_factory.hpp:77] Creating layer A
I0224 17:09:27.606017 28663 net.cpp:86] Creating Layer A
I0224 17:09:27.606021 28663 net.cpp:408] A <- data_data_0_split_0
I0224 17:09:27.606027 28663 net.cpp:382] A -> A
I0224 17:09:27.606040 28663 net.cpp:124] Setting up A
I0224 17:09:27.606043 28663 net.cpp:131] Top shape: 1 1 (1)
I0224 17:09:27.606048 28663 net.cpp:139] Memory required for data: 1204
I0224 17:09:27.606055 28663 layer_factory.hpp:77] Creating layer AorB
I0224 17:09:27.606061 28663 net.cpp:86] Creating Layer AorB
I0224 17:09:27.606065 28663 net.cpp:408] AorB <- data_data_0_split_1
I0224 17:09:27.606071 28663 net.cpp:382] AorB -> AorB
I0224 17:09:27.606083 28663 net.cpp:124] Setting up AorB
I0224 17:09:27.606087 28663 net.cpp:131] Top shape: 1 1 (1)
I0224 17:09:27.606091 28663 net.cpp:139] Memory required for data: 1208
I0224 17:09:27.606097 28663 net.cpp:202] AorB does not need backward computation.
I0224 17:09:27.606101 28663 net.cpp:202] A does not need backward computation.
I0224 17:09:27.606106 28663 net.cpp:202] data_data_0_split does not need backward computation.
I0224 17:09:27.606109 28663 net.cpp:202] data does not need backward computation.
I0224 17:09:27.606113 28663 net.cpp:244] This network produces output A
I0224 17:09:27.606117 28663 net.cpp:244] This network produces output AorB
I0224 17:09:27.606124 28663 net.cpp:257] Network initialization done.
.I0224 17:09:27.606473 28663 net.cpp:53] Initializing net from parameters: 
state {
  phase: TEST
  level: 0
  stage: "A"
  stage: "B"
}
layer {
  name: "data"
  type: "DummyData"
  top: "data"
  dummy_data_param {
    shape {
      dim: 1
      dim: 1
      dim: 10
      dim: 10
    }
  }
}
layer {
  name: "A"
  type: "InnerProduct"
  bottom: "data"
  top: "A"
  include {
    stage: "A"
  }
  inner_product_param {
    num_output: 1
  }
}
layer {
  name: "B"
  type: "InnerProduct"
  bottom: "data"
  top: "B"
  include {
    stage: "B"
  }
  inner_product_param {
    num_output: 1
  }
}
layer {
  name: "AorB"
  type: "InnerProduct"
  bottom: "data"
  top: "AorB"
  include {
    stage: "A"
  }
  include {
    stage: "B"
  }
  inner_product_param {
    num_output: 1
  }
}
layer {
  name: "AandB"
  type: "InnerProduct"
  bottom: "data"
  top: "AandB"
  include {
    stage: "A"
    stage: "B"
  }
  inner_product_param {
    num_output: 1
  }
}
I0224 17:09:27.606549 28663 layer_factory.hpp:77] Creating layer data
I0224 17:09:27.606556 28663 net.cpp:86] Creating Layer data
I0224 17:09:27.606561 28663 net.cpp:382] data -> data
I0224 17:09:27.606571 28663 net.cpp:124] Setting up data
I0224 17:09:27.606575 28663 net.cpp:131] Top shape: 1 1 10 10 (100)
I0224 17:09:27.606580 28663 net.cpp:139] Memory required for data: 400
I0224 17:09:27.606583 28663 layer_factory.hpp:77] Creating layer data_data_0_split
I0224 17:09:27.606590 28663 net.cpp:86] Creating Layer data_data_0_split
I0224 17:09:27.606593 28663 net.cpp:408] data_data_0_split <- data
I0224 17:09:27.606600 28663 net.cpp:382] data_data_0_split -> data_data_0_split_0
I0224 17:09:27.606606 28663 net.cpp:382] data_data_0_split -> data_data_0_split_1
I0224 17:09:27.606612 28663 net.cpp:382] data_data_0_split -> data_data_0_split_2
I0224 17:09:27.606619 28663 net.cpp:382] data_data_0_split -> data_data_0_split_3
I0224 17:09:27.606626 28663 net.cpp:124] Setting up data_data_0_split
I0224 17:09:27.606631 28663 net.cpp:131] Top shape: 1 1 10 10 (100)
I0224 17:09:27.606636 28663 net.cpp:131] Top shape: 1 1 10 10 (100)
I0224 17:09:27.606640 28663 net.cpp:131] Top shape: 1 1 10 10 (100)
I0224 17:09:27.606645 28663 net.cpp:131] Top shape: 1 1 10 10 (100)
I0224 17:09:27.606649 28663 net.cpp:139] Memory required for data: 2000
I0224 17:09:27.606653 28663 layer_factory.hpp:77] Creating layer A
I0224 17:09:27.606659 28663 net.cpp:86] Creating Layer A
I0224 17:09:27.606663 28663 net.cpp:408] A <- data_data_0_split_0
I0224 17:09:27.606668 28663 net.cpp:382] A -> A
I0224 17:09:27.606680 28663 net.cpp:124] Setting up A
I0224 17:09:27.606684 28663 net.cpp:131] Top shape: 1 1 (1)
I0224 17:09:27.606688 28663 net.cpp:139] Memory required for data: 2004
I0224 17:09:27.606696 28663 layer_factory.hpp:77] Creating layer B
I0224 17:09:27.606701 28663 net.cpp:86] Creating Layer B
I0224 17:09:27.606705 28663 net.cpp:408] B <- data_data_0_split_1
I0224 17:09:27.606711 28663 net.cpp:382] B -> B
I0224 17:09:27.606720 28663 net.cpp:124] Setting up B
I0224 17:09:27.606724 28663 net.cpp:131] Top shape: 1 1 (1)
I0224 17:09:27.606729 28663 net.cpp:139] Memory required for data: 2008
I0224 17:09:27.606734 28663 layer_factory.hpp:77] Creating layer AorB
I0224 17:09:27.606740 28663 net.cpp:86] Creating Layer AorB
I0224 17:09:27.606745 28663 net.cpp:408] AorB <- data_data_0_split_2
I0224 17:09:27.606750 28663 net.cpp:382] AorB -> AorB
I0224 17:09:27.606760 28663 net.cpp:124] Setting up AorB
I0224 17:09:27.606762 28663 net.cpp:131] Top shape: 1 1 (1)
I0224 17:09:27.606766 28663 net.cpp:139] Memory required for data: 2012
I0224 17:09:27.606772 28663 layer_factory.hpp:77] Creating layer AandB
I0224 17:09:27.606778 28663 net.cpp:86] Creating Layer AandB
I0224 17:09:27.606782 28663 net.cpp:408] AandB <- data_data_0_split_3
I0224 17:09:27.606788 28663 net.cpp:382] AandB -> AandB
I0224 17:09:27.606799 28663 net.cpp:124] Setting up AandB
I0224 17:09:27.606803 28663 net.cpp:131] Top shape: 1 1 (1)
I0224 17:09:27.606807 28663 net.cpp:139] Memory required for data: 2016
I0224 17:09:27.606812 28663 net.cpp:202] AandB does not need backward computation.
I0224 17:09:27.606817 28663 net.cpp:202] AorB does not need backward computation.
I0224 17:09:27.606820 28663 net.cpp:202] B does not need backward computation.
I0224 17:09:27.606824 28663 net.cpp:202] A does not need backward computation.
…
.I0224 17:09:27.607224 28663 net.cpp:332] The NetState did not contain stage 'A' specified by a rule in layer A
I0224 17:09:27.607237 28663 net.cpp:332] The NetState did not contain stage 'A' specified by a rule in layer AorB
I0224 17:09:27.607242 28663 net.cpp:332] The NetState did not contain stage 'A' specified by a rule in layer AandB
I0224 17:09:27.607245 28663 net.cpp:53] Initializing net from parameters: 
state {
  phase: TEST
  level: 0
  stage: "B"
}
layer {
  name: "data"
  type: "DummyData"
  top: "data"
  dummy_data_param {
    shape {
      dim: 1
      dim: 1
      dim: 10
      dim: 10
    }
  }
}
layer {
  name: "B"
  type: "InnerProduct"
  bottom: "data"
  top: "B"
  include {
    stage: "B"
  }
  inner_product_param {
    num_output: 1
  }
}
layer {
  name: "AorB"
  type: "InnerProduct"
  bottom: "data"
  top: "AorB"
  include {
    stage: "A"
  }
  include {
    stage: "B"
  }
  inner_product_param {
    num_output: 1
  }
}
I0224 17:09:27.607295 28663 layer_factory.hpp:77] Creating layer data
I0224 17:09:27.607301 28663 net.cpp:86] Creating Layer data
I0224 17:09:27.607307 28663 net.cpp:382] data -> data
I0224 17:09:27.607317 28663 net.cpp:124] Setting up data
I0224 17:09:27.607321 28663 net.cpp:131] Top shape: 1 1 10 10 (100)
I0224 17:09:27.607327 28663 net.cpp:139] Memory required for data: 400
I0224 17:09:27.607331 28663 layer_factory.hpp:77] Creating layer data_data_0_split
I0224 17:09:27.607337 28663 net.cpp:86] Creating Layer data_data_0_split
I0224 17:09:27.607342 28663 net.cpp:408] data_data_0_split <- data
I0224 17:09:27.607347 28663 net.cpp:382] data_data_0_split -> data_data_0_split_0
I0224 17:09:27.607353 28663 net.cpp:382] data_data_0_split -> data_data_0_split_1
I0224 17:09:27.607360 28663 net.cpp:124] Setting up data_data_0_split
I0224 17:09:27.607364 28663 net.cpp:131] Top shape: 1 1 10 10 (100)
I0224 17:09:27.607369 28663 net.cpp:131] Top shape: 1 1 10 10 (100)
I0224 17:09:27.607373 28663 net.cpp:139] Memory required for data: 1200
I0224 17:09:27.607378 28663 layer_factory.hpp:77] Creating layer B
I0224 17:09:27.607383 28663 net.cpp:86] Creating Layer B
I0224 17:09:27.607388 28663 net.cpp:408] B <- data_data_0_split_0
I0224 17:09:27.607393 28663 net.cpp:382] B -> B
I0224 17:09:27.607404 28663 net.cpp:124] Setting up B
I0224 17:09:27.607409 28663 net.cpp:131] Top shape: 1 1 (1)
I0224 17:09:27.607414 28663 net.cpp:139] Memory required for data: 1204
I0224 17:09:27.607420 28663 layer_factory.hpp:77] Creating layer AorB
I0224 17:09:27.607425 28663 net.cpp:86] Creating Layer AorB
I0224 17:09:27.607429 28663 net.cpp:408] AorB <- data_data_0_split_1
I0224 17:09:27.607436 28663 net.cpp:382] AorB -> AorB
I0224 17:09:27.607447 28663 net.cpp:124] Setting up AorB
I0224 17:09:27.607451 28663 net.cpp:131] Top shape: 1 1 (1)
I0224 17:09:27.607455 28663 net.cpp:139] Memory required for data: 1208
I0224 17:09:27.607462 28663 net.cpp:202] AorB does not need backward computation.
I0224 17:09:27.607465 28663 net.cpp:202] B does not need backward computation.
I0224 17:09:27.607470 28663 net.cpp:202] data_data_0_split does not need backward computation.
I0224 17:09:27.607473 28663 net.cpp:202] data does not need backward computation.
I0224 17:09:27.607476 28663 net.cpp:244] This network produces output AorB
I0224 17:09:27.607481 28663 net.cpp:244] This network produces output B
I0224 17:09:27.607487 28663 net.cpp:257] Network initialization done.
.I0224 17:09:27.608278 28663 net.cpp:53] Initializing net from parameters: 
state {
  phase: TEST
  level: 0
}
layer {
  name: "data"
  type: "DummyData"
  top: "data"
  top: "label"
  transform_param {
    scale: 0.00392156886
  }
  dummy_data_param {
    shape {
      dim: 50
      dim: 1
      dim: 28
      dim: 28
    }
    shape {
      dim: 50
      dim: 1
      dim: 1
      dim: 1
    }
  }
}
layer {
  name: "conv1"
  type: "Convolution"
  bottom: "data"
  top: "conv1"
  convolution_param {
    num_output: 20
    kernel_size: 5
    weight_filler {
      type: "xavier"
    }
  }
}
layer {
  name: "pool1"
  type: "Pooling"
  bottom: "conv1"
  top: "pool1"
  pooling_param {
    pool: MAX
    kernel_size: 2
    stride: 2
  }
}
layer {
  name: "conv2"
  type: "Convolution"
  bottom: "pool1"
  top: "conv2"
  convolution_param {
    num_output: 50
    kernel_size: 5
    weight_filler {
      type: "xavier"
    }
  }
}
layer {
  name: "pool2"
  type: "Pooling"
  bottom: "conv2"
  top: "pool2"
  pooling_param {
    pool: MAX
    kernel_size: 2
    stride: 2
  }
}
layer {
  name: "ip1"
  type: "InnerProduct"
  bottom: "pool2"
  top: "ip1"
  inner_product_param {
    num_output: 500
    weight_filler {
      type: "xavier"
    }
  }
}
layer {
  name: "relu1"
  type: "ReLU"
  bottom: "ip1"
  top: "ip1"
}
layer {
  name: "ip2"
  type: "InnerProduct"
  bottom: "ip1"
  top: "ip2"
  inner_product_param {
    num_output: 10
    weight_filler {
      type: "xavier"
    }
  }
}
layer {
  name: "loss"
  type: "SoftmaxWithLoss"
  bottom: "ip2"
  bottom: "label"
  top: "loss"
}
I0224 17:09:27.608361 28663 layer_factory.hpp:77] Creating layer data
I0224 17:09:27.608368 28663 net.cpp:86] Creating Layer data
I0224 17:09:27.608373 28663 net.cpp:382] data -> data
I0224 17:09:27.608381 28663 net.cpp:382] data -> label
I0224 17:09:27.608409 28663 net.cpp:124] Setting up data
I0224 17:09:27.608413 28663 net.cpp:131] Top shape: 50 1 28 28 (39200)
I0224 17:09:27.608420 28663 net.cpp:131] Top shape: 50 1 1 1 (50)
I0224 17:09:27.608425 28663 net.cpp:139] Memory required for data: 157000
I0224 17:09:27.608429 28663 layer_factory.hpp:77] Creating layer conv1
I0224 17:09:27.608436 28663 net.cpp:86] Creating Layer conv1
I0224 17:09:27.608440 28663 net.cpp:408] conv1 <- data
I0224 17:09:27.608446 28663 net.cpp:382] conv1 -> conv1
I0224 17:09:27.608477 28663 net.cpp:124] Setting up conv1
I0224 17:09:27.608481 28663 net.cpp:131] Top shape: 50 20 24 24 (576000)
I0224 17:09:27.608486 28663 net.cpp:139] Memory required for data: 2461000
I0224 17:09:27.608494 28663 layer_factory.hpp:77] Creating layer pool1
I0224 17:09:27.608501 28663 net.cpp:86] Creating Layer pool1
I0224 17:09:27.608505 28663 net.cpp:408] pool1 <- conv1
I0224 17:09:27.608510 28663 net.cpp:382] pool1 -> pool1
I0224 17:09:27.608520 28663 net.cpp:124] Setting up pool1
I0224 17:09:27.608523 28663 net.cpp:131] Top shape: 50 20 12 12 (144000)
I0224 17:09:27.608528 28663 net.cpp:139] Memory required for data: 3037000
I0224 17:09:27.608532 28663 layer_factory.hpp:77] Creating layer conv2
I0224 17:09:27.608538 28663 net.cpp:86] Creating Layer conv2
I0224 17:09:27.608542 28663 net.cpp:408] conv2 <- pool1
I0224 17:09:27.608547 28663 net.cpp:382] conv2 -> conv2
I0224 17:09:27.608826 28663 net.cpp:124] Setting up conv2
I0224 17:09:27.608835 28663 net.cpp:131] Top shape: 50 50 8 8 (160000)
I0224 17:09:27.608841 28663 net.cpp:139] Memory required for data: 3677000
I0224 17:09:27.608847 28663 layer_factory.hpp:77] Creating layer pool2
I0224 17:09:27.608853 28663 net.cpp:86] Creating Layer pool2
I0224 17:09:27.608857 28663 net.cpp:408] pool2 <- conv2
I0224 17:09:27.608862 28663 net.cpp:382] pool2 -> pool2
I0224 17:09:27.608870 28663 net.cpp:124] Setting up pool2
I0224 17:09:27.608873 28663 net.cpp:131] Top shape: 50 50 4 4 (40000)
I0224 17:09:27.608878 28663 net.cpp:139] Memory required for data: 3837000
I0224 17:09:27.608882 28663 layer_factory.hpp:77] Creating layer ip1
I0224 17:09:27.608887 28663 net.cpp:86] Creating Layer ip1
I0224 17:09:27.608891 28663 net.cpp:408] ip1 <- pool2
I0224 17:09:27.608896 28663 net.cpp:382] ip1 -> ip1
I0224 17:09:27.611979 28663 net.cpp:124] Setting up ip1
I0224 17:09:27.611990 28663 net.cpp:131] Top shape: 50 500 (25000)
I0224 17:09:27.611995 28663 net.cpp:139] Memory required for data: 3937000
I0224 17:09:27.612002 28663 layer_factory.hpp:77] Creating layer relu1
I0224 17:09:27.612008 28663 net.cpp:86] Creating Layer relu1
I0224 17:09:27.612011 28663 net.cpp:408] relu1 <- ip1
I0224 17:09:27.612017 28663 net.cpp:369] relu1 -> ip1 (in-place)
I0224 17:09:27.612023 28663 net.cpp:124] Setting up relu1
I0224 17:09:27.612027 28663 net.cpp:131] Top shape: 50 500 (25000)
I0224 17:09:27.612031 28663 net.cpp:139] Memory required for data: 4037000
I0224 17:09:27.612035 28663 layer_factory.hpp:77] Creating layer ip2
I0224 17:09:27.612040 28663 net.cpp:86] Creating Layer ip2
I0224 17:09:27.612043 28663 net.cpp:408] ip2 <- ip1
I0224 17:09:27.612049 28663 net.cpp:382] ip2 -> ip2
I0224 17:09:27.612103 28663 net.cpp:124] Setting up ip2
I0224 17:09:27.612109 28663 net.cpp:131] Top shape: 50 10 (500)
I0224 17:09:27.612114 28663 net.cpp:139] Memory required for data: 4039000
I0224 17:09:27.612119 28663 layer_factory.hpp:77] Creating layer loss
I0224 17:09:27.612126 28663 net.cpp:86] Creating Layer loss
I0224 17:09:27.612129 28663 net.cpp:408] loss <- ip2
I0224 17:09:27.612134 28663 net.cpp:408] loss <- label
I0224 17:09:27.612139 28663 net.cpp:382] loss -> loss
I0224 17:09:27.612148 28663 layer_factory.hpp:77] Creating layer loss
…
I0224 17:09:27.612215 28663 net.cpp:244] This network produces output loss
I0224 17:09:27.612224 28663 net.cpp:257] Network initialization done.
I0224 17:09:27.612818 28663 net.cpp:53] Initializing net from parameters: 
state {
  phase: TEST
  level: 0
}
layer {
  name: "DummyData1"
  type: "DummyData"
  top: "DummyData1"
  top: "DummyData2"
  transform_param {
    scale: 0.00392156886
  }
  dummy_data_param {
    shape {
      dim: 50
      dim: 1
      dim: 28
      dim: 28
    }
    shape {
      dim: 50
      dim: 1
      dim: 1
      dim: 1
    }
  }
}
layer {
  name: "Convolution1"
  type: "Convolution"
  bottom: "DummyData1"
  top: "Convolution1"
  convolution_param {
    num_output: 20
    kernel_size: 5
    weight_filler {
      type: "xavier"
    }
  }
}
layer {
  name: "Pooling1"
  type: "Pooling"
  bottom: "Convolution1"
  top: "Pooling1"
  pooling_param {
    pool: MAX
    kernel_size: 2
    stride: 2
  }
}
layer {
  name: "Convolution2"
  type: "Convolution"
  bottom: "Pooling1"
  top: "Convolution2"
  convolution_param {
    num_output: 50
    kernel_size: 5
    weight_filler {
      type: "xavier"
    }
  }
}
layer {
  name: "Pooling2"
  type: "Pooling"
  bottom: "Convolution2"
  top: "Pooling2"
  pooling_param {
    pool: MAX
    kernel_size: 2
    stride: 2
  }
}
layer {
  name: "InnerProduct1"
  type: "InnerProduct"
  bottom: "Pooling2"
  top: "InnerProduct1"
  inner_product_param {
    num_output: 500
    weight_filler {
      type: "xavier"
    }
  }
}
layer {
  name: "ReLU1"
  type: "ReLU"
  bottom: "InnerProduct1"
  top: "InnerProduct1"
}
layer {
  name: "InnerProduct2"
  type: "InnerProduct"
  bottom: "InnerProduct1"
  top: "InnerProduct2"
  inner_product_param {
    num_output: 10
    weight_filler {
      type: "xavier"
    }
  }
}
layer {
  name: "SoftmaxWithLoss1"
  type: "SoftmaxWithLoss"
  bottom: "InnerProduct2"
  bottom: "DummyData2"
  top: "SoftmaxWithLoss1"
}
I0224 17:09:27.612895 28663 layer_factory.hpp:77] Creating layer DummyData1
I0224 17:09:27.612903 28663 net.cpp:86] Creating Layer DummyData1
I0224 17:09:27.612910 28663 net.cpp:382] DummyData1 -> DummyData1
I0224 17:09:27.612917 28663 net.cpp:382] DummyData1 -> DummyData2
I0224 17:09:27.612941 28663 net.cpp:124] Setting up DummyData1
I0224 17:09:27.612946 28663 net.cpp:131] Top shape: 50 1 28 28 (39200)
I0224 17:09:27.612952 28663 net.cpp:131] Top shape: 50 1 1 1 (50)
I0224 17:09:27.612957 28663 net.cpp:139] Memory required for data: 157000
I0224 17:09:27.612962 28663 layer_factory.hpp:77] Creating layer Convolution1
I0224 17:09:27.612968 28663 net.cpp:86] Creating Layer Convolution1
I0224 17:09:27.612972 28663 net.cpp:408] Convolution1 <- DummyData1
I0224 17:09:27.612978 28663 net.cpp:382] Convolution1 -> Convolution1
I0224 17:09:27.613008 28663 net.cpp:124] Setting up Convolution1
I0224 17:09:27.613013 28663 net.cpp:131] Top shape: 50 20 24 24 (576000)
I0224 17:09:27.613018 28663 net.cpp:139] Memory required for data: 2461000
I0224 17:09:27.613026 28663 layer_factory.hpp:77] Creating layer Pooling1
I0224 17:09:27.613032 28663 net.cpp:86] Creating Layer Pooling1
I0224 17:09:27.613035 28663 net.cpp:408] Pooling1 <- Convolution1
I0224 17:09:27.613041 28663 net.cpp:382] Pooling1 -> Pooling1
I0224 17:09:27.613049 28663 net.cpp:124] Setting up Pooling1
I0224 17:09:27.613052 28663 net.cpp:131] Top shape: 50 20 12 12 (144000)
I0224 17:09:27.613057 28663 net.cpp:139] Memory required for data: 3037000
I0224 17:09:27.613061 28663 layer_factory.hpp:77] Creating layer Convolution2
I0224 17:09:27.613068 28663 net.cpp:86] Creating Layer Convolution2
I0224 17:09:27.613071 28663 net.cpp:408] Convolution2 <- Pooling1
I0224 17:09:27.613077 28663 net.cpp:382] Convolution2 -> Convolution2
I0224 17:09:27.613384 28663 net.cpp:124] Setting up Convolution2
I0224 17:09:27.613392 28663 net.cpp:131] Top shape: 50 50 8 8 (160000)
I0224 17:09:27.613399 28663 net.cpp:139] Memory required for data: 3677000
I0224 17:09:27.613404 28663 layer_factory.hpp:77] Creating layer Pooling2
I0224 17:09:27.613410 28663 net.cpp:86] Creating Layer Pooling2
I0224 17:09:27.613413 28663 net.cpp:408] Pooling2 <- Convolution2
I0224 17:09:27.613420 28663 net.cpp:382] Pooling2 -> Pooling2
I0224 17:09:27.613427 28663 net.cpp:124] Setting up Pooling2
I0224 17:09:27.613430 28663 net.cpp:131] Top shape: 50 50 4 4 (40000)
I0224 17:09:27.613436 28663 net.cpp:139] Memory required for data: 3837000
I0224 17:09:27.613440 28663 layer_factory.hpp:77] Creating layer InnerProduct1
I0224 17:09:27.613445 28663 net.cpp:86] Creating Layer InnerProduct1
I0224 17:09:27.613448 28663 net.cpp:408] InnerProduct1 <- Pooling2
I0224 17:09:27.613453 28663 net.cpp:382] InnerProduct1 -> InnerProduct1
I0224 17:09:27.616767 28663 net.cpp:124] Setting up InnerProduct1
I0224 17:09:27.616780 28663 net.cpp:131] Top shape: 50 500 (25000)
I0224 17:09:27.616786 28663 net.cpp:139] Memory required for data: 3937000
I0224 17:09:27.616791 28663 layer_factory.hpp:77] Creating layer ReLU1
I0224 17:09:27.616797 28663 net.cpp:86] Creating Layer ReLU1
I0224 17:09:27.616801 28663 net.cpp:408] ReLU1 <- InnerProduct1
I0224 17:09:27.616806 28663 net.cpp:369] ReLU1 -> InnerProduct1 (in-place)
I0224 17:09:27.616812 28663 net.cpp:124] Setting up ReLU1
I0224 17:09:27.616816 28663 net.cpp:131] Top shape: 50 500 (25000)
I0224 17:09:27.616820 28663 net.cpp:139] Memory required for data: 4037000
I0224 17:09:27.616824 28663 layer_factory.hpp:77] Creating layer InnerProduct2
I0224 17:09:27.616828 28663 net.cpp:86] Creating Layer InnerProduct2
I0224 17:09:27.616832 28663 net.cpp:408] InnerProduct2 <- InnerProduct1
I0224 17:09:27.616837 28663 net.cpp:382] InnerProduct2 -> InnerProduct2
I0224 17:09:27.616888 28663 net.cpp:124] Setting up InnerProduct2
I0224 17:09:27.616894 28663 net.cpp:131] Top shape: 50 10 (500)
I0224 17:09:27.616899 28663 net.cpp:139] Memory required for data: 4039000
I0224 17:09:27.616904 28663 layer_factory.hpp:77] Creating layer SoftmaxWithLoss1
I0224 17:09:27.616910 28663 net.cpp:86] Creating Layer SoftmaxWithLoss1
I0224 17:09:27.616914 28663 net.cpp:408] SoftmaxWithLoss1 <- InnerProduct2
I0224 17:09:27.616919 28663 net.cpp:408] SoftmaxWithLoss1 <- DummyData2
I0224 17:09:27.616925 28663 net.cpp:382] SoftmaxWithLoss1 -> SoftmaxWithLoss1
…
.I0224 17:09:27.618590 28663 upgrade_proto.cpp:69] Attempting to upgrade input file specified using deprecated input fields: /tmp/tmpzp8pmr0d
I0224 17:09:27.618607 28663 upgrade_proto.cpp:72] Successfully upgraded file specified using deprecated input fields.
W0224 17:09:27.618610 28663 upgrade_proto.cpp:74] Note that future Caffe releases will only support input layers and not input fields.
I0224 17:09:27.618623 28663 net.cpp:53] Initializing net from parameters: 
name: "pythonnet"
force_backward: true
state {
  phase: TRAIN
  level: 0
}
layer {
  name: "input"
  type: "Input"
  top: "data"
  input_param {
    shape {
      dim: 10
      dim: 9
      dim: 8
    }
  }
}
layer {
  name: "one"
  type: "Python"
  bottom: "data"
  top: "one"
  python_param {
    module: "test_python_layer"
    layer: "SimpleLayer"
  }
}
layer {
  name: "two"
  type: "Python"
  bottom: "one"
  top: "two"
  python_param {
    module: "test_python_layer"
    layer: "SimpleLayer"
  }
}
layer {
  name: "three"
  type: "Python"
  bottom: "two"
  top: "three"
  python_param {
    module: "test_python_layer"
    layer: "SimpleLayer"
  }
}
I0224 17:09:27.618671 28663 layer_factory.hpp:77] Creating layer input
I0224 17:09:27.618679 28663 net.cpp:86] Creating Layer input
I0224 17:09:27.618683 28663 net.cpp:382] input -> data
I0224 17:09:27.618692 28663 net.cpp:124] Setting up input
I0224 17:09:27.618696 28663 net.cpp:131] Top shape: 10 9 8 (720)
I0224 17:09:27.618701 28663 net.cpp:139] Memory required for data: 2880
I0224 17:09:27.618705 28663 layer_factory.hpp:77] Creating layer one
I0224 17:09:27.618731 28663 net.cpp:86] Creating Layer one
I0224 17:09:27.618736 28663 net.cpp:408] one <- data
I0224 17:09:27.618741 28663 net.cpp:382] one -> one
I0224 17:09:27.618780 28663 net.cpp:124] Setting up one
I0224 17:09:27.618784 28663 net.cpp:131] Top shape: 10 9 8 (720)
I0224 17:09:27.618789 28663 net.cpp:139] Memory required for data: 5760
I0224 17:09:27.618793 28663 layer_factory.hpp:77] Creating layer two
I0224 17:09:27.618806 28663 net.cpp:86] Creating Layer two
I0224 17:09:27.618810 28663 net.cpp:408] two <- one
I0224 17:09:27.618814 28663 net.cpp:382] two -> two
I0224 17:09:27.618832 28663 net.cpp:124] Setting up two
I0224 17:09:27.618837 28663 net.cpp:131] Top shape: 10 9 8 (720)
I0224 17:09:27.618841 28663 net.cpp:139] Memory required for data: 8640
I0224 17:09:27.618845 28663 layer_factory.hpp:77] Creating layer three
I0224 17:09:27.618857 28663 net.cpp:86] Creating Layer three
I0224 17:09:27.618861 28663 net.cpp:408] three <- two
I0224 17:09:27.618866 28663 net.cpp:382] three -> three
I0224 17:09:27.618883 28663 net.cpp:124] Setting up three
I0224 17:09:27.618887 28663 net.cpp:131] Top shape: 10 9 8 (720)
I0224 17:09:27.618892 28663 net.cpp:139] Memory required for data: 11520
I0224 17:09:27.618896 28663 net.cpp:202] three does not need backward computation.
I0224 17:09:27.618899 28663 net.cpp:202] two does not need backward computation.
I0224 17:09:27.618903 28663 net.cpp:202] one does not need backward computation.
I0224 17:09:27.618907 28663 net.cpp:202] input does not need backward computation.
I0224 17:09:27.618911 28663 net.cpp:244] This network produces output three
I0224 17:09:27.618917 28663 net.cpp:257] Network initialization done.
.I0224 17:09:27.620785 28663 upgrade_proto.cpp:69] Attempting to upgrade input file specified using deprecated input fields: /tmp/tmpoak78rv2
I0224 17:09:27.620800 28663 upgrade_proto.cpp:72] Successfully upgraded file specified using deprecated input fields.
W0224 17:09:27.620805 28663 upgrade_proto.cpp:74] Note that future Caffe releases will only support input layers and not input fields.
I0224 17:09:27.620817 28663 net.cpp:53] Initializing net from parameters: 
name: "pythonnet"
force_backward: true
state {
  phase: TRAIN
  level: 0
}
layer {
  name: "input"
  type: "Input"
  top: "data"
  input_param {
    shape {
      dim: 10
      dim: 9
      dim: 8
    }
  }
}
layer {
  name: "one"
  type: "Python"
  bottom: "data"
  top: "one"
  python_param {
    module: "test_python_layer"
    layer: "SimpleLayer"
  }
}
layer {
  name: "two"
  type: "Python"
  bottom: "one"
  top: "two"
  python_param {
    module: "test_python_layer"
    layer: "SimpleLayer"
  }
}
layer {
  name: "three"
  type: "Python"
  bottom: "two"
  top: "three"
  python_param {
    module: "test_python_layer"
    layer: "SimpleLayer"
  }
}
I0224 17:09:27.620865 28663 layer_factory.hpp:77] Creating layer input
I0224 17:09:27.620872 28663 net.cpp:86] Creating Layer input
I0224 17:09:27.620877 28663 net.cpp:382] input -> data
I0224 17:09:27.620887 28663 net.cpp:124] Setting up input
I0224 17:09:27.620890 28663 net.cpp:131] Top shape: 10 9 8 (720)
I0224 17:09:27.620895 28663 net.cpp:139] Memory required for data: 2880
I0224 17:09:27.620899 28663 layer_factory.hpp:77] Creating layer one
I0224 17:09:27.620925 28663 net.cpp:86] Creating Layer one
I0224 17:09:27.620929 28663 net.cpp:408] one <- data
I0224 17:09:27.620935 28663 net.cpp:382] one -> one
I0224 17:09:27.620965 28663 net.cpp:124] Setting up one
I0224 17:09:27.620968 28663 net.cpp:131] Top shape: 10 9 8 (720)
I0224 17:09:27.620973 28663 net.cpp:139] Memory required for data: 5760
I0224 17:09:27.620977 28663 layer_factory.hpp:77] Creating layer two
I0224 17:09:27.620990 28663 net.cpp:86] Creating Layer two
I0224 17:09:27.620995 28663 net.cpp:408] two <- one
I0224 17:09:27.620999 28663 net.cpp:382] two -> two
I0224 17:09:27.621016 28663 net.cpp:124] Setting up two
I0224 17:09:27.621019 28663 net.cpp:131] Top shape: 10 9 8 (720)
I0224 17:09:27.621024 28663 net.cpp:139] Memory required for data: 8640
I0224 17:09:27.621027 28663 layer_factory.hpp:77] Creating layer three
I0224 17:09:27.621039 28663 net.cpp:86] Creating Layer three
I0224 17:09:27.621043 28663 net.cpp:408] three <- two
I0224 17:09:27.621048 28663 net.cpp:382] three -> three
I0224 17:09:27.621065 28663 net.cpp:124] Setting up three
I0224 17:09:27.621069 28663 net.cpp:131] Top shape: 10 9 8 (720)
I0224 17:09:27.621074 28663 net.cpp:139] Memory required for data: 11520
I0224 17:09:27.621078 28663 net.cpp:202] three does not need backward computation.
I0224 17:09:27.621083 28663 net.cpp:202] two does not need backward computation.
I0224 17:09:27.621086 28663 net.cpp:202] one does not need backward computation.
I0224 17:09:27.621089 28663 net.cpp:202] input does not need backward computation.
I0224 17:09:27.621093 28663 net.cpp:244] This network produces output three
I0224 17:09:27.621099 28663 net.cpp:257] Network initialization done.
I0224 17:09:27.621309 28663 upgrade_proto.cpp:69] Attempting to upgrade input file specified using deprecated input fields: /tmp/tmpq61ee4l1
I0224 17:09:27.621322 28663 upgrade_proto.cpp:72] Successfully upgraded file specified using deprecated input fields.
W0224 17:09:27.621326 28663 upgrade_proto.cpp:74] Note that future Caffe releases will only support input layers and not input fields.
I0224 17:09:27.621335 28663 net.cpp:53] Initializing net from parameters: 
name: "pythonnet"
force_backward: true
state {
  phase: TEST
  level: 0
}
layer {
  name: "input"
  type: "Input"
  top: "data"
  input_param {
    shape {
      dim: 10
      dim: 9
      dim: 8
    }
  }
}
layer {
  name: "layer"
  type: "Python"
  bottom: "data"
  top: "top"
  python_param {
    module: "test_python_layer"
    layer: "ExceptionLayer"
  }
}
I0224 17:09:27.621371 28663 layer_factory.hpp:77] Creating layer input
I0224 17:09:27.621376 28663 net.cpp:86] Creating Layer input
I0224 17:09:27.621381 28663 net.cpp:382] input -> data
I0224 17:09:27.621390 28663 net.cpp:124] Setting up input
I0224 17:09:27.621394 28663 net.cpp:131] Top shape: 10 9 8 (720)
I0224 17:09:27.621400 28663 net.cpp:139] Memory required for data: 2880
I0224 17:09:27.621404 28663 layer_factory.hpp:77] Creating layer layer
I0224 17:09:27.621426 28663 net.cpp:86] Creating Layer layer
I0224 17:09:27.621430 28663 net.cpp:408] layer <- data
I0224 17:09:27.621435 28663 net.cpp:382] layer -> top
.I0224 17:09:27.621781 28663 upgrade_proto.cpp:69] Attempting to upgrade input file specified using deprecated input fields: /tmp/tmppbuo69i0
I0224 17:09:27.621794 28663 upgrade_proto.cpp:72] Successfully upgraded file specified using deprecated input fields.
W0224 17:09:27.621798 28663 upgrade_proto.cpp:74] Note that future Caffe releases will only support input layers and not input fields.
I0224 17:09:27.621811 28663 net.cpp:53] Initializing net from parameters: 
name: "pythonnet"
force_backward: true
state {
  phase: TRAIN
  level: 0
}
layer {
  name: "input"
  type: "Input"
  top: "data"
  input_param {
    shape {
      dim: 10
      dim: 9
      dim: 8
    }
  }
}
layer {
  name: "one"
  type: "Python"
  bottom: "data"
  top: "one"
  python_param {
    module: "test_python_layer"
    layer: "SimpleLayer"
  }
}
layer {
  name: "two"
  type: "Python"
  bottom: "one"
  top: "two"
  python_param {
    module: "test_python_layer"
    layer: "SimpleLayer"
  }
}
layer {
  name: "three"
  type: "Python"
  bottom: "two"
  top: "three"
  python_param {
    module: "test_python_layer"
    layer: "SimpleLayer"
  }
}
I0224 17:09:27.621858 28663 layer_factory.hpp:77] Creating layer input
I0224 17:09:27.621865 28663 net.cpp:86] Creating Layer input
I0224 17:09:27.621870 28663 net.cpp:382] input -> data
I0224 17:09:27.621878 28663 net.cpp:124] Setting up input
I0224 17:09:27.621882 28663 net.cpp:131] Top shape: 10 9 8 (720)
I0224 17:09:27.621887 28663 net.cpp:139] Memory required for data: 2880
I0224 17:09:27.621891 28663 layer_factory.hpp:77] Creating layer one
I0224 17:09:27.621913 28663 net.cpp:86] Creating Layer one
I0224 17:09:27.621917 28663 net.cpp:408] one <- data
I0224 17:09:27.621922 28663 net.cpp:382] one -> one
I0224 17:09:27.621950 28663 net.cpp:124] Setting up one
I0224 17:09:27.621954 28663 net.cpp:131] Top shape: 10 9 8 (720)
I0224 17:09:27.621959 28663 net.cpp:139] Memory required for data: 5760
I0224 17:09:27.621963 28663 layer_factory.hpp:77] Creating layer two
I0224 17:09:27.621976 28663 net.cpp:86] Creating Layer two
I0224 17:09:27.621980 28663 net.cpp:408] two <- one
I0224 17:09:27.621985 28663 net.cpp:382] two -> two
I0224 17:09:27.622001 28663 net.cpp:124] Setting up two
I0224 17:09:27.622005 28663 net.cpp:131] Top shape: 10 9 8 (720)
I0224 17:09:27.622009 28663 net.cpp:139] Memory required for data: 8640
I0224 17:09:27.622014 28663 layer_factory.hpp:77] Creating layer three
I0224 17:09:27.622025 28663 net.cpp:86] Creating Layer three
I0224 17:09:27.622028 28663 net.cpp:408] three <- two
I0224 17:09:27.622035 28663 net.cpp:382] three -> three
I0224 17:09:27.622051 28663 net.cpp:124] Setting up three
I0224 17:09:27.622054 28663 net.cpp:131] Top shape: 10 9 8 (720)
I0224 17:09:27.622059 28663 net.cpp:139] Memory required for data: 11520
I0224 17:09:27.622062 28663 net.cpp:202] three does not need backward computation.
I0224 17:09:27.622066 28663 net.cpp:202] two does not need backward computation.
I0224 17:09:27.622071 28663 net.cpp:202] one does not need backward computation.
I0224 17:09:27.622074 28663 net.cpp:202] input does not need backward computation.
I0224 17:09:27.622078 28663 net.cpp:244] This network produces output three
I0224 17:09:27.622083 28663 net.cpp:257] Network initialization done.
.I0224 17:09:27.623924 28663 upgrade_proto.cpp:69] Attempting to upgrade input file specified using deprecated input fields: /tmp/tmpbbhl75_l
I0224 17:09:27.623939 28663 upgrade_proto.cpp:72] Successfully upgraded file specified using deprecated input fields.
W0224 17:09:27.623941 28663 upgrade_proto.cpp:74] Note that future Caffe releases will only support input layers and not input fields.
I0224 17:09:27.623955 28663 net.cpp:53] Initializing net from parameters: 
name: "pythonnet"
force_backward: true
state {
  phase: TRAIN
  level: 0
}
layer {
  name: "input"
  type: "Input"
  top: "data"
  input_param {
    shape {
      dim: 10
      dim: 9
      dim: 8
    }
  }
}
layer {
  name: "one"
  type: "Python"
  bottom: "data"
  top: "one"
  python_param {
    module: "test_python_layer"
    layer: "SimpleLayer"
  }
}
layer {
  name: "two"
  type: "Python"
  bottom: "one"
  top: "two"
  python_param {
    module: "test_python_layer"
    layer: "SimpleLayer"
  }
}
layer {
  name: "three"
  type: "Python"
  bottom: "two"
  top: "three"
  python_param {
    module: "test_python_layer"
    layer: "SimpleLayer"
  }
}
I0224 17:09:27.624002 28663 layer_factory.hpp:77] Creating layer input
I0224 17:09:27.624009 28663 net.cpp:86] Creating Layer input
I0224 17:09:27.624014 28663 net.cpp:382] input -> data
I0224 17:09:27.624022 28663 net.cpp:124] Setting up input
I0224 17:09:27.624027 28663 net.cpp:131] Top shape: 10 9 8 (720)
I0224 17:09:27.624032 28663 net.cpp:139] Memory required for data: 2880
I0224 17:09:27.624037 28663 layer_factory.hpp:77] Creating layer one
I0224 17:09:27.624058 28663 net.cpp:86] Creating Layer one
I0224 17:09:27.624063 28663 net.cpp:408] one <- data
I0224 17:09:27.624068 28663 net.cpp:382] one -> one
I0224 17:09:27.624094 28663 net.cpp:124] Setting up one
I0224 17:09:27.624099 28663 net.cpp:131] Top shape: 10 9 8 (720)
I0224 17:09:27.624102 28663 net.cpp:139] Memory required for data: 5760
I0224 17:09:27.624106 28663 layer_factory.hpp:77] Creating layer two
I0224 17:09:27.624119 28663 net.cpp:86] Creating Layer two
I0224 17:09:27.624123 28663 net.cpp:408] two <- one
I0224 17:09:27.624128 28663 net.cpp:382] two -> two
I0224 17:09:27.624145 28663 net.cpp:124] Setting up two
I0224 17:09:27.624150 28663 net.cpp:131] Top shape: 10 9 8 (720)
I0224 17:09:27.624153 28663 net.cpp:139] Memory required for data: 8640
I0224 17:09:27.624157 28663 layer_factory.hpp:77] Creating layer three
I0224 17:09:27.624169 28663 net.cpp:86] Creating Layer three
I0224 17:09:27.624173 28663 net.cpp:408] three <- two
I0224 17:09:27.624178 28663 net.cpp:382] three -> three
I0224 17:09:27.624194 28663 net.cpp:124] Setting up three
I0224 17:09:27.624198 28663 net.cpp:131] Top shape: 10 9 8 (720)
I0224 17:09:27.624202 28663 net.cpp:139] Memory required for data: 11520
I0224 17:09:27.624207 28663 net.cpp:202] three does not need backward computation.
I0224 17:09:27.624210 28663 net.cpp:202] two does not need backward computation.
I0224 17:09:27.624214 28663 net.cpp:202] one does not need backward computation.
I0224 17:09:27.624218 28663 net.cpp:202] input does not need backward computation.
I0224 17:09:27.624222 28663 net.cpp:244] This network produces output three
I0224 17:09:27.624228 28663 net.cpp:257] Network initialization done.
I0224 17:09:27.624430 28663 upgrade_proto.cpp:69] Attempting to upgrade input file specified using deprecated input fields: /tmp/tmp3j5xq2tt
I0224 17:09:27.624444 28663 upgrade_proto.cpp:72] Successfully upgraded file specified using deprecated input fields.
W0224 17:09:27.624447 28663 upgrade_proto.cpp:74] Note that future Caffe releases will only support input layers and not input fields.
I0224 17:09:27.624456 28663 net.cpp:53] Initializing net from parameters: 
name: "pythonnet"
force_backward: true
state {
  phase: TRAIN
  level: 0
}
layer {
  name: "input"
  type: "Input"
  top: "data"
  input_param {
    shape {
      dim: 10
      dim: 9
      dim: 8
    }
  }
}
layer {
  name: "layer"
  type: "Python"
  bottom: "data"
  top: "top"
  python_param {
    module: "test_python_layer"
    layer: "ParameterLayer"
  }
}
I0224 17:09:27.624490 28663 layer_factory.hpp:77] Creating layer input
I0224 17:09:27.624497 28663 net.cpp:86] Creating Layer input
I0224 17:09:27.624502 28663 net.cpp:382] input -> data
I0224 17:09:27.624511 28663 net.cpp:124] Setting up input
I0224 17:09:27.624514 28663 net.cpp:131] Top shape: 10 9 8 (720)
I0224 17:09:27.624519 28663 net.cpp:139] Memory required for data: 2880
I0224 17:09:27.624524 28663 layer_factory.hpp:77] Creating layer layer
I0224 17:09:27.624545 28663 net.cpp:86] Creating Layer layer
I0224 17:09:27.624549 28663 net.cpp:408] layer <- data
I0224 17:09:27.624555 28663 net.cpp:382] layer -> top
I0224 17:09:27.624595 28663 net.cpp:124] Setting up layer
I0224 17:09:27.624599 28663 net.cpp:131] Top shape: 10 9 8 (720)
I0224 17:09:27.624604 28663 net.cpp:139] Memory required for data: 5760
I0224 17:09:27.624611 28663 net.cpp:202] layer does not need backward computation.
I0224 17:09:27.624615 28663 net.cpp:202] input does not need backward computation.
I0224 17:09:27.624619 28663 net.cpp:244] This network produces output top
I0224 17:09:27.624624 28663 net.cpp:257] Network initialization done.
I0224 17:09:27.624948 28663 upgrade_proto.cpp:69] Attempting to upgrade input file specified using deprecated input fields: /tmp/tmp3j5xq2tt
I0224 17:09:27.624963 28663 upgrade_proto.cpp:72] Successfully upgraded file specified using deprecated input fields.
W0224 17:09:27.624966 28663 upgrade_proto.cpp:74] Note that future Caffe releases will only support input layers and not input fields.
I0224 17:09:27.624974 28663 net.cpp:53] Initializing net from parameters: 
name: "pythonnet"
force_backward: true
state {
  phase: TRAIN
  level: 0
}
layer {
  name: "input"
  type: "Input"
  top: "data"
  input_param {
    shape {
      dim: 10
      dim: 9
      dim: 8
    }
  }
}
layer {
  name: "layer"
  type: "Python"
  bottom: "data"
  top: "top"
  python_param {
    module: "test_python_layer"
    layer: "ParameterLayer"
  }
}
I0224 17:09:27.625007 28663 layer_factory.hpp:77] Creating layer input
I0224 17:09:27.625013 28663 net.cpp:86] Creating Layer input
I0224 17:09:27.625018 28663 net.cpp:382] input -> data
I0224 17:09:27.625028 28663 net.cpp:124] Setting up input
I0224 17:09:27.625032 28663 net.cpp:131] Top shape: 10 9 8 (720)
I0224 17:09:27.625037 28663 net.cpp:139] Memory required for data: 2880
I0224 17:09:27.625042 28663 layer_factory.hpp:77] Creating layer layer
I0224 17:09:27.625063 28663 net.cpp:86] Creating Layer layer
I0224 17:09:27.625068 28663 net.cpp:408] layer <- data
I0224 17:09:27.625073 28663 net.cpp:382] layer -> top
I0224 17:09:27.625108 28663 net.cpp:124] Setting up layer
I0224 17:09:27.625113 28663 net.cpp:131] Top shape: 10 9 8 (720)
I0224 17:09:27.625118 28663 net.cpp:139] Memory required for data: 5760
I0224 17:09:27.625124 28663 net.cpp:202] layer does not need backward computation.
I0224 17:09:27.625128 28663 net.cpp:202] input does not need backward computation.
I0224 17:09:27.625133 28663 net.cpp:244] This network produces output top
I0224 17:09:27.625138 28663 net.cpp:257] Network initialization done.
.I0224 17:09:27.625447 28663 upgrade_proto.cpp:69] Attempting to upgrade input file specified using deprecated input fields: /tmp/tmpko032vsk
I0224 17:09:27.625461 28663 upgrade_proto.cpp:72] Successfully upgraded file specified using deprecated input fields.
W0224 17:09:27.625464 28663 upgrade_proto.cpp:74] Note that future Caffe releases will only support input layers and not input fields.
I0224 17:09:27.625476 28663 net.cpp:53] Initializing net from parameters: 
name: "pythonnet"
force_backward: true
state {
  phase: TRAIN
  level: 0
}
layer {
  name: "input"
  type: "Input"
  top: "data"
  input_param {
    shape {
      dim: 10
      dim: 9
      dim: 8
    }
  }
}
layer {
  name: "one"
  type: "Python"
  bottom: "data"
  top: "one"
  python_param {
    module: "test_python_layer"
    layer: "SimpleLayer"
  }
}
layer {
  name: "two"
  type: "Python"
  bottom: "one"
  top: "two"
  python_param {
    module: "test_python_layer"
    layer: "SimpleLayer"
  }
}
layer {
  name: "three"
  type: "Python"
  bottom: "two"
  top: "three"
  python_param {
    module: "test_python_layer"
    layer: "SimpleLayer"
  }
}
I0224 17:09:27.625524 28663 layer_factory.hpp:77] Creating layer input
I0224 17:09:27.625531 28663 net.cpp:86] Creating Layer input
I0224 17:09:27.625535 28663 net.cpp:382] input -> data
I0224 17:09:27.625545 28663 net.cpp:124] Setting up input
I0224 17:09:27.625548 28663 net.cpp:131] Top shape: 10 9 8 (720)
I0224 17:09:27.625553 28663 net.cpp:139] Memory required for data: 2880
I0224 17:09:27.625557 28663 layer_factory.hpp:77] Creating layer one
I0224 17:09:27.625579 28663 net.cpp:86] Creating Layer one
I0224 17:09:27.625583 28663 net.cpp:408] one <- data
I0224 17:09:27.625588 28663 net.cpp:382] one -> one
I0224 17:09:27.625615 28663 net.cpp:124] Setting up one
I0224 17:09:27.625619 28663 net.cpp:131] Top shape: 10 9 8 (720)
I0224 17:09:27.625624 28663 net.cpp:139] Memory required for data: 5760
I0224 17:09:27.625628 28663 layer_factory.hpp:77] Creating layer two
I0224 17:09:27.625641 28663 net.cpp:86] Creating Layer two
I0224 17:09:27.625645 28663 net.cpp:408] two <- one
I0224 17:09:27.625650 28663 net.cpp:382] two -> two
I0224 17:09:27.625666 28663 net.cpp:124] Setting up two
I0224 17:09:27.625670 28663 net.cpp:131] Top shape: 10 9 8 (720)
I0224 17:09:27.625674 28663 net.cpp:139] Memory required for data: 8640
I0224 17:09:27.625679 28663 layer_factory.hpp:77] Creating layer three
I0224 17:09:27.625690 28663 net.cpp:86] Creating Layer three
I0224 17:09:27.625694 28663 net.cpp:408] three <- two
I0224 17:09:27.625699 28663 net.cpp:382] three -> three
I0224 17:09:27.625716 28663 net.cpp:124] Setting up three
I0224 17:09:27.625720 28663 net.cpp:131] Top shape: 10 9 8 (720)
I0224 17:09:27.625725 28663 net.cpp:139] Memory required for data: 11520
I0224 17:09:27.625728 28663 net.cpp:202] three does not need backward computation.
I0224 17:09:27.625732 28663 net.cpp:202] two does not need backward computation.
I0224 17:09:27.625736 28663 net.cpp:202] one does not need backward computation.
I0224 17:09:27.625741 28663 net.cpp:202] input does not need backward computation.
…
.I0224 17:09:27.626554 28663 upgrade_proto.cpp:69] Attempting to upgrade input file specified using deprecated input fields: /tmp/tmpyk2qi055
I0224 17:09:27.626567 28663 upgrade_proto.cpp:72] Successfully upgraded file specified using deprecated input fields.
W0224 17:09:27.626571 28663 upgrade_proto.cpp:74] Note that future Caffe releases will only support input layers and not input fields.
I0224 17:09:27.626583 28663 net.cpp:53] Initializing net from parameters: 
name: "pythonnet"
force_backward: true
state {
  phase: TRAIN
  level: 0
}
layer {
  name: "input"
  type: "Input"
  top: "data"
  input_param {
    shape {
      dim: 10
      dim: 9
      dim: 8
    }
  }
}
layer {
  name: "one"
  type: "Python"
  bottom: "data"
  top: "one"
  python_param {
    module: "test_python_layer"
    layer: "SimpleLayer"
  }
}
layer {
  name: "two"
  type: "Python"
  bottom: "one"
  top: "two"
  python_param {
    module: "test_python_layer"
    layer: "SimpleLayer"
  }
}
layer {
  name: "three"
  type: "Python"
  bottom: "two"
  top: "three"
  python_param {
    module: "test_python_layer"
    layer: "SimpleLayer"
  }
}
I0224 17:09:27.626631 28663 layer_factory.hpp:77] Creating layer input
I0224 17:09:27.626637 28663 net.cpp:86] Creating Layer input
I0224 17:09:27.626642 28663 net.cpp:382] input -> data
I0224 17:09:27.626652 28663 net.cpp:124] Setting up input
I0224 17:09:27.626655 28663 net.cpp:131] Top shape: 10 9 8 (720)
I0224 17:09:27.626660 28663 net.cpp:139] Memory required for data: 2880
I0224 17:09:27.626664 28663 layer_factory.hpp:77] Creating layer one
I0224 17:09:27.626686 28663 net.cpp:86] Creating Layer one
I0224 17:09:27.626690 28663 net.cpp:408] one <- data
I0224 17:09:27.626695 28663 net.cpp:382] one -> one
I0224 17:09:27.626722 28663 net.cpp:124] Setting up one
I0224 17:09:27.626726 28663 net.cpp:131] Top shape: 10 9 8 (720)
I0224 17:09:27.626731 28663 net.cpp:139] Memory required for data: 5760
I0224 17:09:27.626735 28663 layer_factory.hpp:77] Creating layer two
I0224 17:09:27.626749 28663 net.cpp:86] Creating Layer two
I0224 17:09:27.626752 28663 net.cpp:408] two <- one
I0224 17:09:27.626757 28663 net.cpp:382] two -> two
I0224 17:09:27.626772 28663 net.cpp:124] Setting up two
I0224 17:09:27.626776 28663 net.cpp:131] Top shape: 10 9 8 (720)
I0224 17:09:27.626781 28663 net.cpp:139] Memory required for data: 8640
I0224 17:09:27.626785 28663 layer_factory.hpp:77] Creating layer three
I0224 17:09:27.626796 28663 net.cpp:86] Creating Layer three
I0224 17:09:27.626801 28663 net.cpp:408] three <- two
I0224 17:09:27.626806 28663 net.cpp:382] three -> three
I0224 17:09:27.626821 28663 net.cpp:124] Setting up three
I0224 17:09:27.626825 28663 net.cpp:131] Top shape: 10 9 8 (720)
I0224 17:09:27.626830 28663 net.cpp:139] Memory required for data: 11520
I0224 17:09:27.626834 28663 net.cpp:202] three does not need backward computation.
I0224 17:09:27.626838 28663 net.cpp:202] two does not need backward computation.
I0224 17:09:27.626842 28663 net.cpp:202] one does not need backward computation.
I0224 17:09:27.626847 28663 net.cpp:202] input does not need backward computation.
I0224 17:09:27.626850 28663 net.cpp:244] This network produces output three
I0224 17:09:27.626855 28663 net.cpp:257] Network initialization done.
.I0224 17:09:27.627271 28663 upgrade_proto.cpp:69] Attempting to upgrade input file specified using deprecated input fields: /tmp/tmp3qmc64fr
I0224 17:09:27.627285 28663 upgrade_proto.cpp:72] Successfully upgraded file specified using deprecated input fields.
W0224 17:09:27.627290 28663 upgrade_proto.cpp:74] Note that future Caffe releases will only support input layers and not input fields.
I0224 17:09:27.627300 28663 net.cpp:53] Initializing net from parameters: 
name: "pythonnet"
force_backward: true
state {
  phase: TRAIN
  level: 0
}
layer {
  name: "input"
  type: "Input"
  top: "data"
  input_param {
    shape {
      dim: 10
      dim: 9
      dim: 8
    }
  }
}
layer {
  name: "mul10"
  type: "Python"
  bottom: "data"
  top: "mul10"
  python_param {
    module: "test_python_layer_with_param_str"
    layer: "SimpleParamLayer"
    param_str: "10"
  }
}
layer {
  name: "mul2"
  type: "Python"
  bottom: "mul10"
  top: "mul2"
  python_param {
    module: "test_python_layer_with_param_str"
    layer: "SimpleParamLayer"
    param_str: "2"
  }
}
I0224 17:09:27.627342 28663 layer_factory.hpp:77] Creating layer input
I0224 17:09:27.627349 28663 net.cpp:86] Creating Layer input
I0224 17:09:27.627354 28663 net.cpp:382] input -> data
I0224 17:09:27.627362 28663 net.cpp:124] Setting up input
I0224 17:09:27.627367 28663 net.cpp:131] Top shape: 10 9 8 (720)
I0224 17:09:27.627372 28663 net.cpp:139] Memory required for data: 2880
I0224 17:09:27.627377 28663 layer_factory.hpp:77] Creating layer mul10
I0224 17:09:27.627399 28663 net.cpp:86] Creating Layer mul10
I0224 17:09:27.627403 28663 net.cpp:408] mul10 <- data
I0224 17:09:27.627409 28663 net.cpp:382] mul10 -> mul10
I0224 17:09:27.627444 28663 net.cpp:124] Setting up mul10
I0224 17:09:27.627449 28663 net.cpp:131] Top shape: 10 9 8 (720)
I0224 17:09:27.627454 28663 net.cpp:139] Memory required for data: 5760
I0224 17:09:27.627456 28663 layer_factory.hpp:77] Creating layer mul2
I0224 17:09:27.627470 28663 net.cpp:86] Creating Layer mul2
I0224 17:09:27.627475 28663 net.cpp:408] mul2 <- mul10
I0224 17:09:27.627480 28663 net.cpp:382] mul2 -> mul2
I0224 17:09:27.627501 28663 net.cpp:124] Setting up mul2
I0224 17:09:27.627504 28663 net.cpp:131] Top shape: 10 9 8 (720)
I0224 17:09:27.627509 28663 net.cpp:139] Memory required for data: 8640
I0224 17:09:27.627512 28663 net.cpp:202] mul2 does not need backward computation.
I0224 17:09:27.627516 28663 net.cpp:202] mul10 does not need backward computation.
I0224 17:09:27.627521 28663 net.cpp:202] input does not need backward computation.
I0224 17:09:27.627524 28663 net.cpp:244] This network produces output mul2
I0224 17:09:27.627529 28663 net.cpp:257] Network initialization done.
.I0224 17:09:27.629348 28663 upgrade_proto.cpp:69] Attempting to upgrade input file specified using deprecated input fields: /tmp/tmpyklncusm
I0224 17:09:27.629361 28663 upgrade_proto.cpp:72] Successfully upgraded file specified using deprecated input fields.
W0224 17:09:27.629365 28663 upgrade_proto.cpp:74] Note that future Caffe releases will only support input layers and not input fields.
I0224 17:09:27.629376 28663 net.cpp:53] Initializing net from parameters: 
name: "pythonnet"
force_backward: true
state {
  phase: TRAIN
  level: 0
}
layer {
  name: "input"
  type: "Input"
  top: "data"
  input_param {
    shape {
      dim: 10
      dim: 9
      dim: 8
    }
  }
}
layer {
  name: "mul10"
  type: "Python"
  bottom: "data"
  top: "mul10"
  python_param {
    module: "test_python_layer_with_param_str"
    layer: "SimpleParamLayer"
    param_str: "10"
  }
}
layer {
  name: "mul2"
  type: "Python"
  bottom: "mul10"
  top: "mul2"
  python_param {
    module: "test_python_layer_with_param_str"
    layer: "SimpleParamLayer"
    param_str: "2"
  }
}
I0224 17:09:27.629420 28663 layer_factory.hpp:77] Creating layer input
I0224 17:09:27.629427 28663 net.cpp:86] Creating Layer input
I0224 17:09:27.629432 28663 net.cpp:382] input -> data
I0224 17:09:27.629441 28663 net.cpp:124] Setting up input
I0224 17:09:27.629444 28663 net.cpp:131] Top shape: 10 9 8 (720)
I0224 17:09:27.629451 28663 net.cpp:139] Memory required for data: 2880
I0224 17:09:27.629454 28663 layer_factory.hpp:77] Creating layer mul10
I0224 17:09:27.629477 28663 net.cpp:86] Creating Layer mul10
I0224 17:09:27.629482 28663 net.cpp:408] mul10 <- data
I0224 17:09:27.629487 28663 net.cpp:382] mul10 -> mul10
I0224 17:09:27.629516 28663 net.cpp:124] Setting up mul10
I0224 17:09:27.629521 28663 net.cpp:131] Top shape: 10 9 8 (720)
I0224 17:09:27.629525 28663 net.cpp:139] Memory required for data: 5760
I0224 17:09:27.629529 28663 layer_factory.hpp:77] Creating layer mul2
I0224 17:09:27.629542 28663 net.cpp:86] Creating Layer mul2
I0224 17:09:27.629546 28663 net.cpp:408] mul2 <- mul10
I0224 17:09:27.629551 28663 net.cpp:382] mul2 -> mul2
I0224 17:09:27.629570 28663 net.cpp:124] Setting up mul2
I0224 17:09:27.629575 28663 net.cpp:131] Top shape: 10 9 8 (720)
I0224 17:09:27.629580 28663 net.cpp:139] Memory required for data: 8640
I0224 17:09:27.629583 28663 net.cpp:202] mul2 does not need backward computation.
I0224 17:09:27.629587 28663 net.cpp:202] mul10 does not need backward computation.
I0224 17:09:27.629590 28663 net.cpp:202] input does not need backward computation.
I0224 17:09:27.629595 28663 net.cpp:244] This network produces output mul2
I0224 17:09:27.629601 28663 net.cpp:257] Network initialization done.
.I0224 17:09:27.631600 28663 solver.cpp:45] Initializing solver from parameters: 
test_iter: 10
test_interval: 10
base_lr: 0.01
display: 100
max_iter: 100
lr_policy: "inv"
gamma: 0.0001
power: 0.75
momentum: 0.9
weight_decay: 0.0005
snapshot_prefix: "model"
net: "/tmp/tmpwwwtdwjc"
snapshot_after_train: false
I0224 17:09:27.631634 28663 solver.cpp:102] Creating training net from net file: /tmp/tmpwwwtdwjc
I0224 17:09:27.631722 28663 net.cpp:53] Initializing net from parameters: 
name: "testnet"
force_backward: true
state {
  phase: TRAIN
}
layer {
  name: "data"
  type: "DummyData"
  top: "data"
  top: "label"
  dummy_data_param {
    data_filler {
      type: "gaussian"
      std: 1
    }
    data_filler {
      type: "constant"
    }
    num: 5
    num: 5
    channels: 2
    channels: 1
    height: 3
    height: 1
    width: 4
    width: 1
  }
}
layer {
  name: "conv"
  type: "Convolution"
  bottom: "data"
  top: "conv"
  param {
    decay_mult: 1
  }
  param {
    decay_mult: 0
  }
  convolution_param {
    num_output: 11
    pad: 3
    kernel_size: 2
    weight_filler {
      type: "gaussian"
      std: 1
    }
    bias_filler {
      type: "constant"
      value: 2
    }
  }
}
layer {
  name: "ip"
  type: "InnerProduct"
  bottom: "conv"
  top: "ip_blob"
  inner_product_param {
    num_output: 13
    weight_filler {
      type: "gaussian"
      std: 2.5
    }
    bias_filler {
      type: "constant"
      value: -3
    }
  }
}
layer {
  name: "loss"
  type: "SoftmaxWithLoss"
  bottom: "ip_blob"
  bottom: "label"
  top: "loss"
}
I0224 17:09:27.631778 28663 layer_factory.hpp:77] Creating layer data
I0224 17:09:27.631785 28663 net.cpp:86] Creating Layer data
I0224 17:09:27.631790 28663 net.cpp:382] data -> data
I0224 17:09:27.631799 28663 net.cpp:382] data -> label
I0224 17:09:27.631809 28663 net.cpp:124] Setting up data
I0224 17:09:27.631814 28663 net.cpp:131] Top shape: 5 2 3 4 (120)
I0224 17:09:27.631819 28663 net.cpp:131] Top shape: 5 1 1 1 (5)
I0224 17:09:27.631824 28663 net.cpp:139] Memory required for data: 500
I0224 17:09:27.631829 28663 layer_factory.hpp:77] Creating layer conv
I0224 17:09:27.631836 28663 net.cpp:86] Creating Layer conv
I0224 17:09:27.631840 28663 net.cpp:408] conv <- data
I0224 17:09:27.631847 28663 net.cpp:382] conv -> conv
I0224 17:09:27.631870 28663 net.cpp:124] Setting up conv
I0224 17:09:27.631875 28663 net.cpp:131] Top shape: 5 11 8 9 (3960)
I0224 17:09:27.631880 28663 net.cpp:139] Memory required for data: 16340
I0224 17:09:27.631887 28663 layer_factory.hpp:77] Creating layer ip
I0224 17:09:27.631893 28663 net.cpp:86] Creating Layer ip
I0224 17:09:27.631897 28663 net.cpp:408] ip <- conv
I0224 17:09:27.631903 28663 net.cpp:382] ip -> ip_blob
I0224 17:09:27.632084 28663 net.cpp:124] Setting up ip
I0224 17:09:27.632091 28663 net.cpp:131] Top shape: 5 13 (65)
I0224 17:09:27.632097 28663 net.cpp:139] Memory required for data: 16600
I0224 17:09:27.632103 28663 layer_factory.hpp:77] Creating layer loss
I0224 17:09:27.632108 28663 net.cpp:86] Creating Layer loss
I0224 17:09:27.632112 28663 net.cpp:408] loss <- ip_blob
I0224 17:09:27.632117 28663 net.cpp:408] loss <- label
I0224 17:09:27.632122 28663 net.cpp:382] loss -> loss
I0224 17:09:27.632129 28663 layer_factory.hpp:77] Creating layer loss
…
